#map = affine_map<(d0, d1) -> (d0 * 256 + (d1 floordiv 32) * 128)>
#map1 = affine_map<(d0, d1) -> (d0 * 128 + d1 * 64)>
#map2 = affine_map<(d0, d1) -> (d0 * 128 + d1 * 64 + 1)>
#map3 = affine_map<(d0, d1) -> (d0 * 128 + d1 * 64 + 2)>
#map4 = affine_map<(d0, d1) -> (d0 * 128 + d1 * 64 + 3)>
#map5 = affine_map<(d0, d1) -> (d0 * 128 + d1 * 64 + 4)>
#map6 = affine_map<(d0, d1) -> (d0 * 128 + d1 * 64 + 5)>
#map7 = affine_map<(d0, d1) -> (d0 * 128 + d1 * 64 + 6)>
#map8 = affine_map<(d0, d1) -> (d0 * 128 + d1 * 64 + 7)>
#map9 = affine_map<(d0, d1) -> (d0 * 128 + d1 * 64 + 8)>
#map10 = affine_map<(d0, d1) -> (d0 * 128 + d1 * 64 + 9)>
#map11 = affine_map<(d0, d1) -> (d0 * 128 + d1 * 64 + 10)>
#map12 = affine_map<(d0, d1) -> (d0 * 128 + d1 * 64 + 11)>
#map13 = affine_map<(d0, d1) -> (d0 * 128 + d1 * 64 + 12)>
#map14 = affine_map<(d0, d1) -> (d0 * 128 + d1 * 64 + 13)>
#map15 = affine_map<(d0, d1) -> (d0 * 128 + d1 * 64 + 14)>
#map16 = affine_map<(d0, d1) -> (d0 * 128 + d1 * 64 + 15)>
#map17 = affine_map<(d0, d1) -> (d0 * 256 + (d1 floordiv 32) * 128 + 8)>
#map18 = affine_map<(d0, d1) -> (d0 * 256 + (d1 floordiv 32) * 128 + 16)>
#map19 = affine_map<(d0, d1) -> (d0 * 256 + (d1 floordiv 32) * 128 + 24)>
#map20 = affine_map<(d0, d1) -> (d0 * 256 + (d1 floordiv 32) * 128 + 32)>
#map21 = affine_map<(d0, d1) -> (d0 * 256 + (d1 floordiv 32) * 128 + 40)>
#map22 = affine_map<(d0, d1) -> (d0 * 256 + (d1 floordiv 32) * 128 + 48)>
#map23 = affine_map<(d0, d1) -> (d0 * 256 + (d1 floordiv 32) * 128 + 56)>
#map24 = affine_map<(d0, d1) -> (d0 * 256 + (d1 floordiv 32) * 128 + 64)>
#map25 = affine_map<(d0, d1) -> (d0 * 256 + (d1 floordiv 32) * 128 + 72)>
#map26 = affine_map<(d0, d1) -> (d0 * 256 + (d1 floordiv 32) * 128 + 80)>
#map27 = affine_map<(d0, d1) -> (d0 * 256 + (d1 floordiv 32) * 128 + 88)>
#map28 = affine_map<(d0, d1) -> (d0 * 256 + (d1 floordiv 32) * 128 + 96)>
#map29 = affine_map<(d0, d1) -> (d0 * 256 + (d1 floordiv 32) * 128 + 104)>
#map30 = affine_map<(d0, d1) -> (d0 * 256 + (d1 floordiv 32) * 128 + 112)>
#map31 = affine_map<(d0, d1) -> (d0 * 256 + (d1 floordiv 32) * 128 + 120)>
#map32 = affine_map<(d0, d1) -> (d0 * 128 + d1 * 64 + 16)>
#map33 = affine_map<(d0, d1) -> (d0 * 128 + d1 * 64 + 17)>
#map34 = affine_map<(d0, d1) -> (d0 * 128 + d1 * 64 + 18)>
#map35 = affine_map<(d0, d1) -> (d0 * 128 + d1 * 64 + 19)>
#map36 = affine_map<(d0, d1) -> (d0 * 128 + d1 * 64 + 20)>
#map37 = affine_map<(d0, d1) -> (d0 * 128 + d1 * 64 + 21)>
#map38 = affine_map<(d0, d1) -> (d0 * 128 + d1 * 64 + 22)>
#map39 = affine_map<(d0, d1) -> (d0 * 128 + d1 * 64 + 23)>
#map40 = affine_map<(d0, d1) -> (d0 * 128 + d1 * 64 + 24)>
#map41 = affine_map<(d0, d1) -> (d0 * 128 + d1 * 64 + 25)>
#map42 = affine_map<(d0, d1) -> (d0 * 128 + d1 * 64 + 26)>
#map43 = affine_map<(d0, d1) -> (d0 * 128 + d1 * 64 + 27)>
#map44 = affine_map<(d0, d1) -> (d0 * 128 + d1 * 64 + 28)>
#map45 = affine_map<(d0, d1) -> (d0 * 128 + d1 * 64 + 29)>
#map46 = affine_map<(d0, d1) -> (d0 * 128 + d1 * 64 + 30)>
#map47 = affine_map<(d0, d1) -> (d0 * 128 + d1 * 64 + 31)>
#map48 = affine_map<(d0, d1) -> (d0 * 128 + d1 * 64 + 32)>
#map49 = affine_map<(d0, d1) -> (d0 * 128 + d1 * 64 + 33)>
#map50 = affine_map<(d0, d1) -> (d0 * 128 + d1 * 64 + 34)>
#map51 = affine_map<(d0, d1) -> (d0 * 128 + d1 * 64 + 35)>
#map52 = affine_map<(d0, d1) -> (d0 * 128 + d1 * 64 + 36)>
#map53 = affine_map<(d0, d1) -> (d0 * 128 + d1 * 64 + 37)>
#map54 = affine_map<(d0, d1) -> (d0 * 128 + d1 * 64 + 38)>
#map55 = affine_map<(d0, d1) -> (d0 * 128 + d1 * 64 + 39)>
#map56 = affine_map<(d0, d1) -> (d0 * 128 + d1 * 64 + 40)>
#map57 = affine_map<(d0, d1) -> (d0 * 128 + d1 * 64 + 41)>
#map58 = affine_map<(d0, d1) -> (d0 * 128 + d1 * 64 + 42)>
#map59 = affine_map<(d0, d1) -> (d0 * 128 + d1 * 64 + 43)>
#map60 = affine_map<(d0, d1) -> (d0 * 128 + d1 * 64 + 44)>
#map61 = affine_map<(d0, d1) -> (d0 * 128 + d1 * 64 + 45)>
#map62 = affine_map<(d0, d1) -> (d0 * 128 + d1 * 64 + 46)>
#map63 = affine_map<(d0, d1) -> (d0 * 128 + d1 * 64 + 47)>
#map64 = affine_map<(d0, d1) -> (d0 * 128 + d1 * 64 + 48)>
#map65 = affine_map<(d0, d1) -> (d0 * 128 + d1 * 64 + 49)>
#map66 = affine_map<(d0, d1) -> (d0 * 128 + d1 * 64 + 50)>
#map67 = affine_map<(d0, d1) -> (d0 * 128 + d1 * 64 + 51)>
#map68 = affine_map<(d0, d1) -> (d0 * 128 + d1 * 64 + 52)>
#map69 = affine_map<(d0, d1) -> (d0 * 128 + d1 * 64 + 53)>
#map70 = affine_map<(d0, d1) -> (d0 * 128 + d1 * 64 + 54)>
#map71 = affine_map<(d0, d1) -> (d0 * 128 + d1 * 64 + 55)>
#map72 = affine_map<(d0, d1) -> (d0 * 128 + d1 * 64 + 56)>
#map73 = affine_map<(d0, d1) -> (d0 * 128 + d1 * 64 + 57)>
#map74 = affine_map<(d0, d1) -> (d0 * 128 + d1 * 64 + 58)>
#map75 = affine_map<(d0, d1) -> (d0 * 128 + d1 * 64 + 59)>
#map76 = affine_map<(d0, d1) -> (d0 * 128 + d1 * 64 + 60)>
#map77 = affine_map<(d0, d1) -> (d0 * 128 + d1 * 64 + 61)>
#map78 = affine_map<(d0, d1) -> (d0 * 128 + d1 * 64 + 62)>
#map79 = affine_map<(d0, d1) -> (d0 * 128 + d1 * 64 + 63)>
#map80 = affine_map<(d0) -> (d0 * 4 - (d0 floordiv 4) * 16)>
#map81 = affine_map<(d0, d1) -> (d0 * 256 + d1 * 16 - (d1 floordiv 16) * 256)>
#map82 = affine_map<(d0) -> (d0 * 16 - (d0 floordiv 16) * 256)>
#map83 = affine_map<(d0, d1, d2) -> (d1 * 128 + d2 * 64 + d0 floordiv 4)>
#map84 = affine_map<(d0, d1, d2) -> (d0 * 2 + d1 * 256 + (d2 floordiv 32) * 128 - (d0 floordiv 4) * 8)>
#map85 = affine_map<(d0, d1, d2) -> (d1 * 128 + d2 * 64 + d0 floordiv 4 + 8)>
#map86 = affine_map<(d0, d1, d2) -> (d0 * 2 + d1 * 256 + (d2 floordiv 32) * 128 - (d0 floordiv 4) * 8 + 8)>
#map87 = affine_map<(d0, d1, d2) -> (d0 * 2 + d1 * 256 + (d2 floordiv 32) * 128 - (d0 floordiv 4) * 8 + 16)>
#map88 = affine_map<(d0, d1, d2) -> (d0 * 2 + d1 * 256 + (d2 floordiv 32) * 128 - (d0 floordiv 4) * 8 + 24)>
#map89 = affine_map<(d0, d1, d2) -> (d0 * 2 + d1 * 256 + (d2 floordiv 32) * 128 - (d0 floordiv 4) * 8 + 32)>
#map90 = affine_map<(d0, d1, d2) -> (d0 * 2 + d1 * 256 + (d2 floordiv 32) * 128 - (d0 floordiv 4) * 8 + 40)>
#map91 = affine_map<(d0, d1, d2) -> (d0 * 2 + d1 * 256 + (d2 floordiv 32) * 128 - (d0 floordiv 4) * 8 + 48)>
#map92 = affine_map<(d0, d1, d2) -> (d0 * 2 + d1 * 256 + (d2 floordiv 32) * 128 - (d0 floordiv 4) * 8 + 56)>
#map93 = affine_map<(d0, d1, d2) -> (d0 * 2 + d1 * 256 + (d2 floordiv 32) * 128 - (d0 floordiv 4) * 8 + 64)>
#map94 = affine_map<(d0, d1, d2) -> (d0 * 2 + d1 * 256 + (d2 floordiv 32) * 128 - (d0 floordiv 4) * 8 + 72)>
#map95 = affine_map<(d0, d1, d2) -> (d0 * 2 + d1 * 256 + (d2 floordiv 32) * 128 - (d0 floordiv 4) * 8 + 80)>
#map96 = affine_map<(d0, d1, d2) -> (d0 * 2 + d1 * 256 + (d2 floordiv 32) * 128 - (d0 floordiv 4) * 8 + 88)>
#map97 = affine_map<(d0, d1, d2) -> (d0 * 2 + d1 * 256 + (d2 floordiv 32) * 128 - (d0 floordiv 4) * 8 + 96)>
#map98 = affine_map<(d0, d1, d2) -> (d0 * 2 + d1 * 256 + (d2 floordiv 32) * 128 - (d0 floordiv 4) * 8 + 104)>
#map99 = affine_map<(d0, d1, d2) -> (d0 * 2 + d1 * 256 + (d2 floordiv 32) * 128 - (d0 floordiv 4) * 8 + 112)>
#map100 = affine_map<(d0, d1, d2) -> (d0 * 2 + d1 * 256 + (d2 floordiv 32) * 128 - (d0 floordiv 4) * 8 + 120)>
#map101 = affine_map<(d0, d1, d2) -> (d1 * 128 + d2 * 64 + d0 floordiv 4 + 16)>
#map102 = affine_map<(d0, d1, d2) -> (d1 * 128 + d2 * 64 + d0 floordiv 4 + 24)>
#map103 = affine_map<(d0, d1, d2) -> (d1 * 128 + d2 * 64 + d0 floordiv 4 + 32)>
#map104 = affine_map<(d0, d1, d2) -> (d1 * 128 + d2 * 64 + d0 floordiv 4 + 40)>
#map105 = affine_map<(d0, d1, d2) -> (d1 * 128 + d2 * 64 + d0 floordiv 4 + 48)>
#map106 = affine_map<(d0, d1, d2) -> (d1 * 128 + d2 * 64 + d0 floordiv 4 + 56)>
#map107 = affine_map<(d0, d1) -> (d1 * 64 + d0 floordiv 4)>
#map108 = affine_map<(d0) -> (d0 mod 4)>
#map109 = affine_map<(d0, d1) -> (d1 * 64 + d0 floordiv 4 + 8)>
#map110 = affine_map<(d0) -> (d0 mod 4 + 4)>
#map111 = affine_map<(d0) -> (d0 mod 4 + 8)>
#map112 = affine_map<(d0) -> (d0 mod 4 + 12)>
#map113 = affine_map<(d0, d1) -> (d1 * 64 + d0 floordiv 4 + 16)>
#map114 = affine_map<(d0, d1) -> (d1 * 64 + d0 floordiv 4 + 24)>
#map115 = affine_map<(d0, d1) -> (d1 * 64 + d0 floordiv 4 + 32)>
#map116 = affine_map<(d0, d1) -> (d1 * 64 + d0 floordiv 4 + 40)>
#map117 = affine_map<(d0, d1) -> (d1 * 64 + d0 floordiv 4 + 48)>
#map118 = affine_map<(d0, d1) -> (d1 * 64 + d0 floordiv 4 + 56)>
#map119 = affine_map<(d0, d1) -> ((d1 floordiv 32) * 128 + d0 floordiv 4)>
#map120 = affine_map<(d0, d1) -> ((d1 floordiv 32) * 128 + d0 floordiv 4 + 8)>
#map121 = affine_map<(d0, d1) -> ((d1 floordiv 32) * 128 + d0 floordiv 4 + 16)>
#map122 = affine_map<(d0, d1) -> ((d1 floordiv 32) * 128 + d0 floordiv 4 + 24)>
#map123 = affine_map<(d0, d1) -> ((d1 floordiv 32) * 128 + d0 floordiv 4 + 32)>
#map124 = affine_map<(d0, d1) -> ((d1 floordiv 32) * 128 + d0 floordiv 4 + 40)>
#map125 = affine_map<(d0, d1) -> ((d1 floordiv 32) * 128 + d0 floordiv 4 + 48)>
#map126 = affine_map<(d0, d1) -> ((d1 floordiv 32) * 128 + d0 floordiv 4 + 56)>
#map127 = affine_map<(d0, d1) -> ((d1 floordiv 32) * 128 + d0 floordiv 4 + 64)>
#map128 = affine_map<(d0, d1) -> ((d1 floordiv 32) * 128 + d0 floordiv 4 + 72)>
#map129 = affine_map<(d0, d1) -> ((d1 floordiv 32) * 128 + d0 floordiv 4 + 80)>
#map130 = affine_map<(d0, d1) -> ((d1 floordiv 32) * 128 + d0 floordiv 4 + 88)>
#map131 = affine_map<(d0, d1) -> ((d1 floordiv 32) * 128 + d0 floordiv 4 + 96)>
#map132 = affine_map<(d0, d1) -> ((d1 floordiv 32) * 128 + d0 floordiv 4 + 104)>
#map133 = affine_map<(d0, d1) -> ((d1 floordiv 32) * 128 + d0 floordiv 4 + 112)>
#map134 = affine_map<(d0, d1) -> ((d1 floordiv 32) * 128 + d0 floordiv 4 + 120)>
#map135 = affine_map<(d0, d1, d2) -> (d0 * 128 + d2 * 64 + (d1 floordiv 4) * 4)>
#map136 = affine_map<(d0, d1, d2) -> (d0 * 128 + d2 * 64 + (d1 floordiv 4) * 4 + 1)>
#map137 = affine_map<(d0, d1, d2) -> (d0 * 128 + d2 * 64 + (d1 floordiv 4) * 4 + 2)>
#map138 = affine_map<(d0, d1, d2) -> (d0 * 128 + d2 * 64 + (d1 floordiv 4) * 4 + 3)>
#map139 = affine_map<(d0, d1) -> (d1 * 64 + (d0 floordiv 4) * 4)>
#map140 = affine_map<(d0, d1) -> (d1 * 64 + (d0 floordiv 4) * 4 + 1)>
#map141 = affine_map<(d0, d1) -> (d1 * 64 + (d0 floordiv 4) * 4 + 2)>
#map142 = affine_map<(d0, d1) -> (d1 * 64 + (d0 floordiv 4) * 4 + 3)>
#map143 = affine_map<(d0, d1) -> (d1 * 8 + (d0 floordiv 16) * 2)>
#map144 = affine_map<(d0, d1) -> (d1 * 8 + (d0 floordiv 16) * 2 + 1)>
#map145 = affine_map<(d0)[s0] -> (d0 * 4 + s0 - (d0 floordiv 4) * 16)>
#map146 = affine_map<(d0, d1)[s0] -> (d1 * 8 + s0 + (d0 floordiv 16) * 2)>
#map147 = affine_map<(d0, d1)[s0] -> (d1 * 8 + s0 + (d0 floordiv 16) * 2 + 1)>
module {
  func.func @matmul(%arg0: memref<5376x2048xf32>, %arg1: memref<2048x5376xf32>) -> memref<5376x5376xf32> {
    %cst = arith.constant dense<0.000000e+00> : vector<8xf32>
    %cst_0 = arith.constant dense<0.000000e+00> : vector<2x2xf32>
    %cst_1 = arith.constant dense<0.000000e+00> : vector<4x1xf32>
    %cst_2 = arith.constant dense<0.000000e+00> : vector<2x1xf32>
    %cst_3 = arith.constant 0.000000e+00 : f32
    %c0 = arith.constant 0 : index
    %c2048 = arith.constant 2048 : index
    %c16 = arith.constant 16 : index
    %c1 = arith.constant 1 : index
    %c64 = arith.constant 64 : index
    %c2 = arith.constant 2 : index
    %c21 = arith.constant 21 : index
    %c42 = arith.constant 42 : index
    %alloc = memref.alloc() : memref<16x256xf32, 3>
    %alloc_4 = memref.alloc() : memref<128x16xf32, 3>
    %alloc_5 = memref.alloc() {alignment = 64 : i64} : memref<5376x5376xf32>
    gpu.launch blocks(%arg2, %arg3, %arg4) in (%arg8 = %c21, %arg9 = %c42, %arg10 = %c1) threads(%arg5, %arg6, %arg7) in (%arg11 = %c64, %arg12 = %c2, %arg13 = %c1) {
      %0 = gpu.block_id  x
      %1 = gpu.block_id  y
      %2 = gpu.thread_id  x
      %3 = gpu.thread_id  y
      %4 = affine.apply #map(%0, %2)
      %5 = affine.apply #map1(%1, %3)
      vector.transfer_write %cst, %alloc_5[%5, %4] {in_bounds = [true]} : vector<8xf32>, memref<5376x5376xf32>
      %6 = affine.apply #map2(%1, %3)
      vector.transfer_write %cst, %alloc_5[%6, %4] {in_bounds = [true]} : vector<8xf32>, memref<5376x5376xf32>
      %7 = affine.apply #map3(%1, %3)
      vector.transfer_write %cst, %alloc_5[%7, %4] {in_bounds = [true]} : vector<8xf32>, memref<5376x5376xf32>
      %8 = affine.apply #map4(%1, %3)
      vector.transfer_write %cst, %alloc_5[%8, %4] {in_bounds = [true]} : vector<8xf32>, memref<5376x5376xf32>
      %9 = affine.apply #map5(%1, %3)
      vector.transfer_write %cst, %alloc_5[%9, %4] {in_bounds = [true]} : vector<8xf32>, memref<5376x5376xf32>
      %10 = affine.apply #map6(%1, %3)
      vector.transfer_write %cst, %alloc_5[%10, %4] {in_bounds = [true]} : vector<8xf32>, memref<5376x5376xf32>
      %11 = affine.apply #map7(%1, %3)
      vector.transfer_write %cst, %alloc_5[%11, %4] {in_bounds = [true]} : vector<8xf32>, memref<5376x5376xf32>
      %12 = affine.apply #map8(%1, %3)
      vector.transfer_write %cst, %alloc_5[%12, %4] {in_bounds = [true]} : vector<8xf32>, memref<5376x5376xf32>
      %13 = affine.apply #map9(%1, %3)
      vector.transfer_write %cst, %alloc_5[%13, %4] {in_bounds = [true]} : vector<8xf32>, memref<5376x5376xf32>
      %14 = affine.apply #map10(%1, %3)
      vector.transfer_write %cst, %alloc_5[%14, %4] {in_bounds = [true]} : vector<8xf32>, memref<5376x5376xf32>
      %15 = affine.apply #map11(%1, %3)
      vector.transfer_write %cst, %alloc_5[%15, %4] {in_bounds = [true]} : vector<8xf32>, memref<5376x5376xf32>
      %16 = affine.apply #map12(%1, %3)
      vector.transfer_write %cst, %alloc_5[%16, %4] {in_bounds = [true]} : vector<8xf32>, memref<5376x5376xf32>
      %17 = affine.apply #map13(%1, %3)
      vector.transfer_write %cst, %alloc_5[%17, %4] {in_bounds = [true]} : vector<8xf32>, memref<5376x5376xf32>
      %18 = affine.apply #map14(%1, %3)
      vector.transfer_write %cst, %alloc_5[%18, %4] {in_bounds = [true]} : vector<8xf32>, memref<5376x5376xf32>
      %19 = affine.apply #map15(%1, %3)
      vector.transfer_write %cst, %alloc_5[%19, %4] {in_bounds = [true]} : vector<8xf32>, memref<5376x5376xf32>
      %20 = affine.apply #map16(%1, %3)
      vector.transfer_write %cst, %alloc_5[%20, %4] {in_bounds = [true]} : vector<8xf32>, memref<5376x5376xf32>
      %21 = affine.apply #map17(%0, %2)
      vector.transfer_write %cst, %alloc_5[%5, %21] {in_bounds = [true]} : vector<8xf32>, memref<5376x5376xf32>
      vector.transfer_write %cst, %alloc_5[%6, %21] {in_bounds = [true]} : vector<8xf32>, memref<5376x5376xf32>
      vector.transfer_write %cst, %alloc_5[%7, %21] {in_bounds = [true]} : vector<8xf32>, memref<5376x5376xf32>
      vector.transfer_write %cst, %alloc_5[%8, %21] {in_bounds = [true]} : vector<8xf32>, memref<5376x5376xf32>
      vector.transfer_write %cst, %alloc_5[%9, %21] {in_bounds = [true]} : vector<8xf32>, memref<5376x5376xf32>
      vector.transfer_write %cst, %alloc_5[%10, %21] {in_bounds = [true]} : vector<8xf32>, memref<5376x5376xf32>
      vector.transfer_write %cst, %alloc_5[%11, %21] {in_bounds = [true]} : vector<8xf32>, memref<5376x5376xf32>
      vector.transfer_write %cst, %alloc_5[%12, %21] {in_bounds = [true]} : vector<8xf32>, memref<5376x5376xf32>
      vector.transfer_write %cst, %alloc_5[%13, %21] {in_bounds = [true]} : vector<8xf32>, memref<5376x5376xf32>
      vector.transfer_write %cst, %alloc_5[%14, %21] {in_bounds = [true]} : vector<8xf32>, memref<5376x5376xf32>
      vector.transfer_write %cst, %alloc_5[%15, %21] {in_bounds = [true]} : vector<8xf32>, memref<5376x5376xf32>
      vector.transfer_write %cst, %alloc_5[%16, %21] {in_bounds = [true]} : vector<8xf32>, memref<5376x5376xf32>
      vector.transfer_write %cst, %alloc_5[%17, %21] {in_bounds = [true]} : vector<8xf32>, memref<5376x5376xf32>
      vector.transfer_write %cst, %alloc_5[%18, %21] {in_bounds = [true]} : vector<8xf32>, memref<5376x5376xf32>
      vector.transfer_write %cst, %alloc_5[%19, %21] {in_bounds = [true]} : vector<8xf32>, memref<5376x5376xf32>
      vector.transfer_write %cst, %alloc_5[%20, %21] {in_bounds = [true]} : vector<8xf32>, memref<5376x5376xf32>
      %22 = affine.apply #map18(%0, %2)
      vector.transfer_write %cst, %alloc_5[%5, %22] {in_bounds = [true]} : vector<8xf32>, memref<5376x5376xf32>
      vector.transfer_write %cst, %alloc_5[%6, %22] {in_bounds = [true]} : vector<8xf32>, memref<5376x5376xf32>
      vector.transfer_write %cst, %alloc_5[%7, %22] {in_bounds = [true]} : vector<8xf32>, memref<5376x5376xf32>
      vector.transfer_write %cst, %alloc_5[%8, %22] {in_bounds = [true]} : vector<8xf32>, memref<5376x5376xf32>
      vector.transfer_write %cst, %alloc_5[%9, %22] {in_bounds = [true]} : vector<8xf32>, memref<5376x5376xf32>
      vector.transfer_write %cst, %alloc_5[%10, %22] {in_bounds = [true]} : vector<8xf32>, memref<5376x5376xf32>
      vector.transfer_write %cst, %alloc_5[%11, %22] {in_bounds = [true]} : vector<8xf32>, memref<5376x5376xf32>
      vector.transfer_write %cst, %alloc_5[%12, %22] {in_bounds = [true]} : vector<8xf32>, memref<5376x5376xf32>
      vector.transfer_write %cst, %alloc_5[%13, %22] {in_bounds = [true]} : vector<8xf32>, memref<5376x5376xf32>
      vector.transfer_write %cst, %alloc_5[%14, %22] {in_bounds = [true]} : vector<8xf32>, memref<5376x5376xf32>
      vector.transfer_write %cst, %alloc_5[%15, %22] {in_bounds = [true]} : vector<8xf32>, memref<5376x5376xf32>
      vector.transfer_write %cst, %alloc_5[%16, %22] {in_bounds = [true]} : vector<8xf32>, memref<5376x5376xf32>
      vector.transfer_write %cst, %alloc_5[%17, %22] {in_bounds = [true]} : vector<8xf32>, memref<5376x5376xf32>
      vector.transfer_write %cst, %alloc_5[%18, %22] {in_bounds = [true]} : vector<8xf32>, memref<5376x5376xf32>
      vector.transfer_write %cst, %alloc_5[%19, %22] {in_bounds = [true]} : vector<8xf32>, memref<5376x5376xf32>
      vector.transfer_write %cst, %alloc_5[%20, %22] {in_bounds = [true]} : vector<8xf32>, memref<5376x5376xf32>
      %23 = affine.apply #map19(%0, %2)
      vector.transfer_write %cst, %alloc_5[%5, %23] {in_bounds = [true]} : vector<8xf32>, memref<5376x5376xf32>
      vector.transfer_write %cst, %alloc_5[%6, %23] {in_bounds = [true]} : vector<8xf32>, memref<5376x5376xf32>
      vector.transfer_write %cst, %alloc_5[%7, %23] {in_bounds = [true]} : vector<8xf32>, memref<5376x5376xf32>
      vector.transfer_write %cst, %alloc_5[%8, %23] {in_bounds = [true]} : vector<8xf32>, memref<5376x5376xf32>
      vector.transfer_write %cst, %alloc_5[%9, %23] {in_bounds = [true]} : vector<8xf32>, memref<5376x5376xf32>
      vector.transfer_write %cst, %alloc_5[%10, %23] {in_bounds = [true]} : vector<8xf32>, memref<5376x5376xf32>
      vector.transfer_write %cst, %alloc_5[%11, %23] {in_bounds = [true]} : vector<8xf32>, memref<5376x5376xf32>
      vector.transfer_write %cst, %alloc_5[%12, %23] {in_bounds = [true]} : vector<8xf32>, memref<5376x5376xf32>
      vector.transfer_write %cst, %alloc_5[%13, %23] {in_bounds = [true]} : vector<8xf32>, memref<5376x5376xf32>
      vector.transfer_write %cst, %alloc_5[%14, %23] {in_bounds = [true]} : vector<8xf32>, memref<5376x5376xf32>
      vector.transfer_write %cst, %alloc_5[%15, %23] {in_bounds = [true]} : vector<8xf32>, memref<5376x5376xf32>
      vector.transfer_write %cst, %alloc_5[%16, %23] {in_bounds = [true]} : vector<8xf32>, memref<5376x5376xf32>
      vector.transfer_write %cst, %alloc_5[%17, %23] {in_bounds = [true]} : vector<8xf32>, memref<5376x5376xf32>
      vector.transfer_write %cst, %alloc_5[%18, %23] {in_bounds = [true]} : vector<8xf32>, memref<5376x5376xf32>
      vector.transfer_write %cst, %alloc_5[%19, %23] {in_bounds = [true]} : vector<8xf32>, memref<5376x5376xf32>
      vector.transfer_write %cst, %alloc_5[%20, %23] {in_bounds = [true]} : vector<8xf32>, memref<5376x5376xf32>
      %24 = affine.apply #map20(%0, %2)
      vector.transfer_write %cst, %alloc_5[%5, %24] {in_bounds = [true]} : vector<8xf32>, memref<5376x5376xf32>
      vector.transfer_write %cst, %alloc_5[%6, %24] {in_bounds = [true]} : vector<8xf32>, memref<5376x5376xf32>
      vector.transfer_write %cst, %alloc_5[%7, %24] {in_bounds = [true]} : vector<8xf32>, memref<5376x5376xf32>
      vector.transfer_write %cst, %alloc_5[%8, %24] {in_bounds = [true]} : vector<8xf32>, memref<5376x5376xf32>
      vector.transfer_write %cst, %alloc_5[%9, %24] {in_bounds = [true]} : vector<8xf32>, memref<5376x5376xf32>
      vector.transfer_write %cst, %alloc_5[%10, %24] {in_bounds = [true]} : vector<8xf32>, memref<5376x5376xf32>
      vector.transfer_write %cst, %alloc_5[%11, %24] {in_bounds = [true]} : vector<8xf32>, memref<5376x5376xf32>
      vector.transfer_write %cst, %alloc_5[%12, %24] {in_bounds = [true]} : vector<8xf32>, memref<5376x5376xf32>
      vector.transfer_write %cst, %alloc_5[%13, %24] {in_bounds = [true]} : vector<8xf32>, memref<5376x5376xf32>
      vector.transfer_write %cst, %alloc_5[%14, %24] {in_bounds = [true]} : vector<8xf32>, memref<5376x5376xf32>
      vector.transfer_write %cst, %alloc_5[%15, %24] {in_bounds = [true]} : vector<8xf32>, memref<5376x5376xf32>
      vector.transfer_write %cst, %alloc_5[%16, %24] {in_bounds = [true]} : vector<8xf32>, memref<5376x5376xf32>
      vector.transfer_write %cst, %alloc_5[%17, %24] {in_bounds = [true]} : vector<8xf32>, memref<5376x5376xf32>
      vector.transfer_write %cst, %alloc_5[%18, %24] {in_bounds = [true]} : vector<8xf32>, memref<5376x5376xf32>
      vector.transfer_write %cst, %alloc_5[%19, %24] {in_bounds = [true]} : vector<8xf32>, memref<5376x5376xf32>
      vector.transfer_write %cst, %alloc_5[%20, %24] {in_bounds = [true]} : vector<8xf32>, memref<5376x5376xf32>
      %25 = affine.apply #map21(%0, %2)
      vector.transfer_write %cst, %alloc_5[%5, %25] {in_bounds = [true]} : vector<8xf32>, memref<5376x5376xf32>
      vector.transfer_write %cst, %alloc_5[%6, %25] {in_bounds = [true]} : vector<8xf32>, memref<5376x5376xf32>
      vector.transfer_write %cst, %alloc_5[%7, %25] {in_bounds = [true]} : vector<8xf32>, memref<5376x5376xf32>
      vector.transfer_write %cst, %alloc_5[%8, %25] {in_bounds = [true]} : vector<8xf32>, memref<5376x5376xf32>
      vector.transfer_write %cst, %alloc_5[%9, %25] {in_bounds = [true]} : vector<8xf32>, memref<5376x5376xf32>
      vector.transfer_write %cst, %alloc_5[%10, %25] {in_bounds = [true]} : vector<8xf32>, memref<5376x5376xf32>
      vector.transfer_write %cst, %alloc_5[%11, %25] {in_bounds = [true]} : vector<8xf32>, memref<5376x5376xf32>
      vector.transfer_write %cst, %alloc_5[%12, %25] {in_bounds = [true]} : vector<8xf32>, memref<5376x5376xf32>
      vector.transfer_write %cst, %alloc_5[%13, %25] {in_bounds = [true]} : vector<8xf32>, memref<5376x5376xf32>
      vector.transfer_write %cst, %alloc_5[%14, %25] {in_bounds = [true]} : vector<8xf32>, memref<5376x5376xf32>
      vector.transfer_write %cst, %alloc_5[%15, %25] {in_bounds = [true]} : vector<8xf32>, memref<5376x5376xf32>
      vector.transfer_write %cst, %alloc_5[%16, %25] {in_bounds = [true]} : vector<8xf32>, memref<5376x5376xf32>
      vector.transfer_write %cst, %alloc_5[%17, %25] {in_bounds = [true]} : vector<8xf32>, memref<5376x5376xf32>
      vector.transfer_write %cst, %alloc_5[%18, %25] {in_bounds = [true]} : vector<8xf32>, memref<5376x5376xf32>
      vector.transfer_write %cst, %alloc_5[%19, %25] {in_bounds = [true]} : vector<8xf32>, memref<5376x5376xf32>
      vector.transfer_write %cst, %alloc_5[%20, %25] {in_bounds = [true]} : vector<8xf32>, memref<5376x5376xf32>
      %26 = affine.apply #map22(%0, %2)
      vector.transfer_write %cst, %alloc_5[%5, %26] {in_bounds = [true]} : vector<8xf32>, memref<5376x5376xf32>
      vector.transfer_write %cst, %alloc_5[%6, %26] {in_bounds = [true]} : vector<8xf32>, memref<5376x5376xf32>
      vector.transfer_write %cst, %alloc_5[%7, %26] {in_bounds = [true]} : vector<8xf32>, memref<5376x5376xf32>
      vector.transfer_write %cst, %alloc_5[%8, %26] {in_bounds = [true]} : vector<8xf32>, memref<5376x5376xf32>
      vector.transfer_write %cst, %alloc_5[%9, %26] {in_bounds = [true]} : vector<8xf32>, memref<5376x5376xf32>
      vector.transfer_write %cst, %alloc_5[%10, %26] {in_bounds = [true]} : vector<8xf32>, memref<5376x5376xf32>
      vector.transfer_write %cst, %alloc_5[%11, %26] {in_bounds = [true]} : vector<8xf32>, memref<5376x5376xf32>
      vector.transfer_write %cst, %alloc_5[%12, %26] {in_bounds = [true]} : vector<8xf32>, memref<5376x5376xf32>
      vector.transfer_write %cst, %alloc_5[%13, %26] {in_bounds = [true]} : vector<8xf32>, memref<5376x5376xf32>
      vector.transfer_write %cst, %alloc_5[%14, %26] {in_bounds = [true]} : vector<8xf32>, memref<5376x5376xf32>
      vector.transfer_write %cst, %alloc_5[%15, %26] {in_bounds = [true]} : vector<8xf32>, memref<5376x5376xf32>
      vector.transfer_write %cst, %alloc_5[%16, %26] {in_bounds = [true]} : vector<8xf32>, memref<5376x5376xf32>
      vector.transfer_write %cst, %alloc_5[%17, %26] {in_bounds = [true]} : vector<8xf32>, memref<5376x5376xf32>
      vector.transfer_write %cst, %alloc_5[%18, %26] {in_bounds = [true]} : vector<8xf32>, memref<5376x5376xf32>
      vector.transfer_write %cst, %alloc_5[%19, %26] {in_bounds = [true]} : vector<8xf32>, memref<5376x5376xf32>
      vector.transfer_write %cst, %alloc_5[%20, %26] {in_bounds = [true]} : vector<8xf32>, memref<5376x5376xf32>
      %27 = affine.apply #map23(%0, %2)
      vector.transfer_write %cst, %alloc_5[%5, %27] {in_bounds = [true]} : vector<8xf32>, memref<5376x5376xf32>
      vector.transfer_write %cst, %alloc_5[%6, %27] {in_bounds = [true]} : vector<8xf32>, memref<5376x5376xf32>
      vector.transfer_write %cst, %alloc_5[%7, %27] {in_bounds = [true]} : vector<8xf32>, memref<5376x5376xf32>
      vector.transfer_write %cst, %alloc_5[%8, %27] {in_bounds = [true]} : vector<8xf32>, memref<5376x5376xf32>
      vector.transfer_write %cst, %alloc_5[%9, %27] {in_bounds = [true]} : vector<8xf32>, memref<5376x5376xf32>
      vector.transfer_write %cst, %alloc_5[%10, %27] {in_bounds = [true]} : vector<8xf32>, memref<5376x5376xf32>
      vector.transfer_write %cst, %alloc_5[%11, %27] {in_bounds = [true]} : vector<8xf32>, memref<5376x5376xf32>
      vector.transfer_write %cst, %alloc_5[%12, %27] {in_bounds = [true]} : vector<8xf32>, memref<5376x5376xf32>
      vector.transfer_write %cst, %alloc_5[%13, %27] {in_bounds = [true]} : vector<8xf32>, memref<5376x5376xf32>
      vector.transfer_write %cst, %alloc_5[%14, %27] {in_bounds = [true]} : vector<8xf32>, memref<5376x5376xf32>
      vector.transfer_write %cst, %alloc_5[%15, %27] {in_bounds = [true]} : vector<8xf32>, memref<5376x5376xf32>
      vector.transfer_write %cst, %alloc_5[%16, %27] {in_bounds = [true]} : vector<8xf32>, memref<5376x5376xf32>
      vector.transfer_write %cst, %alloc_5[%17, %27] {in_bounds = [true]} : vector<8xf32>, memref<5376x5376xf32>
      vector.transfer_write %cst, %alloc_5[%18, %27] {in_bounds = [true]} : vector<8xf32>, memref<5376x5376xf32>
      vector.transfer_write %cst, %alloc_5[%19, %27] {in_bounds = [true]} : vector<8xf32>, memref<5376x5376xf32>
      vector.transfer_write %cst, %alloc_5[%20, %27] {in_bounds = [true]} : vector<8xf32>, memref<5376x5376xf32>
      %28 = affine.apply #map24(%0, %2)
      vector.transfer_write %cst, %alloc_5[%5, %28] {in_bounds = [true]} : vector<8xf32>, memref<5376x5376xf32>
      vector.transfer_write %cst, %alloc_5[%6, %28] {in_bounds = [true]} : vector<8xf32>, memref<5376x5376xf32>
      vector.transfer_write %cst, %alloc_5[%7, %28] {in_bounds = [true]} : vector<8xf32>, memref<5376x5376xf32>
      vector.transfer_write %cst, %alloc_5[%8, %28] {in_bounds = [true]} : vector<8xf32>, memref<5376x5376xf32>
      vector.transfer_write %cst, %alloc_5[%9, %28] {in_bounds = [true]} : vector<8xf32>, memref<5376x5376xf32>
      vector.transfer_write %cst, %alloc_5[%10, %28] {in_bounds = [true]} : vector<8xf32>, memref<5376x5376xf32>
      vector.transfer_write %cst, %alloc_5[%11, %28] {in_bounds = [true]} : vector<8xf32>, memref<5376x5376xf32>
      vector.transfer_write %cst, %alloc_5[%12, %28] {in_bounds = [true]} : vector<8xf32>, memref<5376x5376xf32>
      vector.transfer_write %cst, %alloc_5[%13, %28] {in_bounds = [true]} : vector<8xf32>, memref<5376x5376xf32>
      vector.transfer_write %cst, %alloc_5[%14, %28] {in_bounds = [true]} : vector<8xf32>, memref<5376x5376xf32>
      vector.transfer_write %cst, %alloc_5[%15, %28] {in_bounds = [true]} : vector<8xf32>, memref<5376x5376xf32>
      vector.transfer_write %cst, %alloc_5[%16, %28] {in_bounds = [true]} : vector<8xf32>, memref<5376x5376xf32>
      vector.transfer_write %cst, %alloc_5[%17, %28] {in_bounds = [true]} : vector<8xf32>, memref<5376x5376xf32>
      vector.transfer_write %cst, %alloc_5[%18, %28] {in_bounds = [true]} : vector<8xf32>, memref<5376x5376xf32>
      vector.transfer_write %cst, %alloc_5[%19, %28] {in_bounds = [true]} : vector<8xf32>, memref<5376x5376xf32>
      vector.transfer_write %cst, %alloc_5[%20, %28] {in_bounds = [true]} : vector<8xf32>, memref<5376x5376xf32>
      %29 = affine.apply #map25(%0, %2)
      vector.transfer_write %cst, %alloc_5[%5, %29] {in_bounds = [true]} : vector<8xf32>, memref<5376x5376xf32>
      vector.transfer_write %cst, %alloc_5[%6, %29] {in_bounds = [true]} : vector<8xf32>, memref<5376x5376xf32>
      vector.transfer_write %cst, %alloc_5[%7, %29] {in_bounds = [true]} : vector<8xf32>, memref<5376x5376xf32>
      vector.transfer_write %cst, %alloc_5[%8, %29] {in_bounds = [true]} : vector<8xf32>, memref<5376x5376xf32>
      vector.transfer_write %cst, %alloc_5[%9, %29] {in_bounds = [true]} : vector<8xf32>, memref<5376x5376xf32>
      vector.transfer_write %cst, %alloc_5[%10, %29] {in_bounds = [true]} : vector<8xf32>, memref<5376x5376xf32>
      vector.transfer_write %cst, %alloc_5[%11, %29] {in_bounds = [true]} : vector<8xf32>, memref<5376x5376xf32>
      vector.transfer_write %cst, %alloc_5[%12, %29] {in_bounds = [true]} : vector<8xf32>, memref<5376x5376xf32>
      vector.transfer_write %cst, %alloc_5[%13, %29] {in_bounds = [true]} : vector<8xf32>, memref<5376x5376xf32>
      vector.transfer_write %cst, %alloc_5[%14, %29] {in_bounds = [true]} : vector<8xf32>, memref<5376x5376xf32>
      vector.transfer_write %cst, %alloc_5[%15, %29] {in_bounds = [true]} : vector<8xf32>, memref<5376x5376xf32>
      vector.transfer_write %cst, %alloc_5[%16, %29] {in_bounds = [true]} : vector<8xf32>, memref<5376x5376xf32>
      vector.transfer_write %cst, %alloc_5[%17, %29] {in_bounds = [true]} : vector<8xf32>, memref<5376x5376xf32>
      vector.transfer_write %cst, %alloc_5[%18, %29] {in_bounds = [true]} : vector<8xf32>, memref<5376x5376xf32>
      vector.transfer_write %cst, %alloc_5[%19, %29] {in_bounds = [true]} : vector<8xf32>, memref<5376x5376xf32>
      vector.transfer_write %cst, %alloc_5[%20, %29] {in_bounds = [true]} : vector<8xf32>, memref<5376x5376xf32>
      %30 = affine.apply #map26(%0, %2)
      vector.transfer_write %cst, %alloc_5[%5, %30] {in_bounds = [true]} : vector<8xf32>, memref<5376x5376xf32>
      vector.transfer_write %cst, %alloc_5[%6, %30] {in_bounds = [true]} : vector<8xf32>, memref<5376x5376xf32>
      vector.transfer_write %cst, %alloc_5[%7, %30] {in_bounds = [true]} : vector<8xf32>, memref<5376x5376xf32>
      vector.transfer_write %cst, %alloc_5[%8, %30] {in_bounds = [true]} : vector<8xf32>, memref<5376x5376xf32>
      vector.transfer_write %cst, %alloc_5[%9, %30] {in_bounds = [true]} : vector<8xf32>, memref<5376x5376xf32>
      vector.transfer_write %cst, %alloc_5[%10, %30] {in_bounds = [true]} : vector<8xf32>, memref<5376x5376xf32>
      vector.transfer_write %cst, %alloc_5[%11, %30] {in_bounds = [true]} : vector<8xf32>, memref<5376x5376xf32>
      vector.transfer_write %cst, %alloc_5[%12, %30] {in_bounds = [true]} : vector<8xf32>, memref<5376x5376xf32>
      vector.transfer_write %cst, %alloc_5[%13, %30] {in_bounds = [true]} : vector<8xf32>, memref<5376x5376xf32>
      vector.transfer_write %cst, %alloc_5[%14, %30] {in_bounds = [true]} : vector<8xf32>, memref<5376x5376xf32>
      vector.transfer_write %cst, %alloc_5[%15, %30] {in_bounds = [true]} : vector<8xf32>, memref<5376x5376xf32>
      vector.transfer_write %cst, %alloc_5[%16, %30] {in_bounds = [true]} : vector<8xf32>, memref<5376x5376xf32>
      vector.transfer_write %cst, %alloc_5[%17, %30] {in_bounds = [true]} : vector<8xf32>, memref<5376x5376xf32>
      vector.transfer_write %cst, %alloc_5[%18, %30] {in_bounds = [true]} : vector<8xf32>, memref<5376x5376xf32>
      vector.transfer_write %cst, %alloc_5[%19, %30] {in_bounds = [true]} : vector<8xf32>, memref<5376x5376xf32>
      vector.transfer_write %cst, %alloc_5[%20, %30] {in_bounds = [true]} : vector<8xf32>, memref<5376x5376xf32>
      %31 = affine.apply #map27(%0, %2)
      vector.transfer_write %cst, %alloc_5[%5, %31] {in_bounds = [true]} : vector<8xf32>, memref<5376x5376xf32>
      vector.transfer_write %cst, %alloc_5[%6, %31] {in_bounds = [true]} : vector<8xf32>, memref<5376x5376xf32>
      vector.transfer_write %cst, %alloc_5[%7, %31] {in_bounds = [true]} : vector<8xf32>, memref<5376x5376xf32>
      vector.transfer_write %cst, %alloc_5[%8, %31] {in_bounds = [true]} : vector<8xf32>, memref<5376x5376xf32>
      vector.transfer_write %cst, %alloc_5[%9, %31] {in_bounds = [true]} : vector<8xf32>, memref<5376x5376xf32>
      vector.transfer_write %cst, %alloc_5[%10, %31] {in_bounds = [true]} : vector<8xf32>, memref<5376x5376xf32>
      vector.transfer_write %cst, %alloc_5[%11, %31] {in_bounds = [true]} : vector<8xf32>, memref<5376x5376xf32>
      vector.transfer_write %cst, %alloc_5[%12, %31] {in_bounds = [true]} : vector<8xf32>, memref<5376x5376xf32>
      vector.transfer_write %cst, %alloc_5[%13, %31] {in_bounds = [true]} : vector<8xf32>, memref<5376x5376xf32>
      vector.transfer_write %cst, %alloc_5[%14, %31] {in_bounds = [true]} : vector<8xf32>, memref<5376x5376xf32>
      vector.transfer_write %cst, %alloc_5[%15, %31] {in_bounds = [true]} : vector<8xf32>, memref<5376x5376xf32>
      vector.transfer_write %cst, %alloc_5[%16, %31] {in_bounds = [true]} : vector<8xf32>, memref<5376x5376xf32>
      vector.transfer_write %cst, %alloc_5[%17, %31] {in_bounds = [true]} : vector<8xf32>, memref<5376x5376xf32>
      vector.transfer_write %cst, %alloc_5[%18, %31] {in_bounds = [true]} : vector<8xf32>, memref<5376x5376xf32>
      vector.transfer_write %cst, %alloc_5[%19, %31] {in_bounds = [true]} : vector<8xf32>, memref<5376x5376xf32>
      vector.transfer_write %cst, %alloc_5[%20, %31] {in_bounds = [true]} : vector<8xf32>, memref<5376x5376xf32>
      %32 = affine.apply #map28(%0, %2)
      vector.transfer_write %cst, %alloc_5[%5, %32] {in_bounds = [true]} : vector<8xf32>, memref<5376x5376xf32>
      vector.transfer_write %cst, %alloc_5[%6, %32] {in_bounds = [true]} : vector<8xf32>, memref<5376x5376xf32>
      vector.transfer_write %cst, %alloc_5[%7, %32] {in_bounds = [true]} : vector<8xf32>, memref<5376x5376xf32>
      vector.transfer_write %cst, %alloc_5[%8, %32] {in_bounds = [true]} : vector<8xf32>, memref<5376x5376xf32>
      vector.transfer_write %cst, %alloc_5[%9, %32] {in_bounds = [true]} : vector<8xf32>, memref<5376x5376xf32>
      vector.transfer_write %cst, %alloc_5[%10, %32] {in_bounds = [true]} : vector<8xf32>, memref<5376x5376xf32>
      vector.transfer_write %cst, %alloc_5[%11, %32] {in_bounds = [true]} : vector<8xf32>, memref<5376x5376xf32>
      vector.transfer_write %cst, %alloc_5[%12, %32] {in_bounds = [true]} : vector<8xf32>, memref<5376x5376xf32>
      vector.transfer_write %cst, %alloc_5[%13, %32] {in_bounds = [true]} : vector<8xf32>, memref<5376x5376xf32>
      vector.transfer_write %cst, %alloc_5[%14, %32] {in_bounds = [true]} : vector<8xf32>, memref<5376x5376xf32>
      vector.transfer_write %cst, %alloc_5[%15, %32] {in_bounds = [true]} : vector<8xf32>, memref<5376x5376xf32>
      vector.transfer_write %cst, %alloc_5[%16, %32] {in_bounds = [true]} : vector<8xf32>, memref<5376x5376xf32>
      vector.transfer_write %cst, %alloc_5[%17, %32] {in_bounds = [true]} : vector<8xf32>, memref<5376x5376xf32>
      vector.transfer_write %cst, %alloc_5[%18, %32] {in_bounds = [true]} : vector<8xf32>, memref<5376x5376xf32>
      vector.transfer_write %cst, %alloc_5[%19, %32] {in_bounds = [true]} : vector<8xf32>, memref<5376x5376xf32>
      vector.transfer_write %cst, %alloc_5[%20, %32] {in_bounds = [true]} : vector<8xf32>, memref<5376x5376xf32>
      %33 = affine.apply #map29(%0, %2)
      vector.transfer_write %cst, %alloc_5[%5, %33] {in_bounds = [true]} : vector<8xf32>, memref<5376x5376xf32>
      vector.transfer_write %cst, %alloc_5[%6, %33] {in_bounds = [true]} : vector<8xf32>, memref<5376x5376xf32>
      vector.transfer_write %cst, %alloc_5[%7, %33] {in_bounds = [true]} : vector<8xf32>, memref<5376x5376xf32>
      vector.transfer_write %cst, %alloc_5[%8, %33] {in_bounds = [true]} : vector<8xf32>, memref<5376x5376xf32>
      vector.transfer_write %cst, %alloc_5[%9, %33] {in_bounds = [true]} : vector<8xf32>, memref<5376x5376xf32>
      vector.transfer_write %cst, %alloc_5[%10, %33] {in_bounds = [true]} : vector<8xf32>, memref<5376x5376xf32>
      vector.transfer_write %cst, %alloc_5[%11, %33] {in_bounds = [true]} : vector<8xf32>, memref<5376x5376xf32>
      vector.transfer_write %cst, %alloc_5[%12, %33] {in_bounds = [true]} : vector<8xf32>, memref<5376x5376xf32>
      vector.transfer_write %cst, %alloc_5[%13, %33] {in_bounds = [true]} : vector<8xf32>, memref<5376x5376xf32>
      vector.transfer_write %cst, %alloc_5[%14, %33] {in_bounds = [true]} : vector<8xf32>, memref<5376x5376xf32>
      vector.transfer_write %cst, %alloc_5[%15, %33] {in_bounds = [true]} : vector<8xf32>, memref<5376x5376xf32>
      vector.transfer_write %cst, %alloc_5[%16, %33] {in_bounds = [true]} : vector<8xf32>, memref<5376x5376xf32>
      vector.transfer_write %cst, %alloc_5[%17, %33] {in_bounds = [true]} : vector<8xf32>, memref<5376x5376xf32>
      vector.transfer_write %cst, %alloc_5[%18, %33] {in_bounds = [true]} : vector<8xf32>, memref<5376x5376xf32>
      vector.transfer_write %cst, %alloc_5[%19, %33] {in_bounds = [true]} : vector<8xf32>, memref<5376x5376xf32>
      vector.transfer_write %cst, %alloc_5[%20, %33] {in_bounds = [true]} : vector<8xf32>, memref<5376x5376xf32>
      %34 = affine.apply #map30(%0, %2)
      vector.transfer_write %cst, %alloc_5[%5, %34] {in_bounds = [true]} : vector<8xf32>, memref<5376x5376xf32>
      vector.transfer_write %cst, %alloc_5[%6, %34] {in_bounds = [true]} : vector<8xf32>, memref<5376x5376xf32>
      vector.transfer_write %cst, %alloc_5[%7, %34] {in_bounds = [true]} : vector<8xf32>, memref<5376x5376xf32>
      vector.transfer_write %cst, %alloc_5[%8, %34] {in_bounds = [true]} : vector<8xf32>, memref<5376x5376xf32>
      vector.transfer_write %cst, %alloc_5[%9, %34] {in_bounds = [true]} : vector<8xf32>, memref<5376x5376xf32>
      vector.transfer_write %cst, %alloc_5[%10, %34] {in_bounds = [true]} : vector<8xf32>, memref<5376x5376xf32>
      vector.transfer_write %cst, %alloc_5[%11, %34] {in_bounds = [true]} : vector<8xf32>, memref<5376x5376xf32>
      vector.transfer_write %cst, %alloc_5[%12, %34] {in_bounds = [true]} : vector<8xf32>, memref<5376x5376xf32>
      vector.transfer_write %cst, %alloc_5[%13, %34] {in_bounds = [true]} : vector<8xf32>, memref<5376x5376xf32>
      vector.transfer_write %cst, %alloc_5[%14, %34] {in_bounds = [true]} : vector<8xf32>, memref<5376x5376xf32>
      vector.transfer_write %cst, %alloc_5[%15, %34] {in_bounds = [true]} : vector<8xf32>, memref<5376x5376xf32>
      vector.transfer_write %cst, %alloc_5[%16, %34] {in_bounds = [true]} : vector<8xf32>, memref<5376x5376xf32>
      vector.transfer_write %cst, %alloc_5[%17, %34] {in_bounds = [true]} : vector<8xf32>, memref<5376x5376xf32>
      vector.transfer_write %cst, %alloc_5[%18, %34] {in_bounds = [true]} : vector<8xf32>, memref<5376x5376xf32>
      vector.transfer_write %cst, %alloc_5[%19, %34] {in_bounds = [true]} : vector<8xf32>, memref<5376x5376xf32>
      vector.transfer_write %cst, %alloc_5[%20, %34] {in_bounds = [true]} : vector<8xf32>, memref<5376x5376xf32>
      %35 = affine.apply #map31(%0, %2)
      vector.transfer_write %cst, %alloc_5[%5, %35] {in_bounds = [true]} : vector<8xf32>, memref<5376x5376xf32>
      vector.transfer_write %cst, %alloc_5[%6, %35] {in_bounds = [true]} : vector<8xf32>, memref<5376x5376xf32>
      vector.transfer_write %cst, %alloc_5[%7, %35] {in_bounds = [true]} : vector<8xf32>, memref<5376x5376xf32>
      vector.transfer_write %cst, %alloc_5[%8, %35] {in_bounds = [true]} : vector<8xf32>, memref<5376x5376xf32>
      vector.transfer_write %cst, %alloc_5[%9, %35] {in_bounds = [true]} : vector<8xf32>, memref<5376x5376xf32>
      vector.transfer_write %cst, %alloc_5[%10, %35] {in_bounds = [true]} : vector<8xf32>, memref<5376x5376xf32>
      vector.transfer_write %cst, %alloc_5[%11, %35] {in_bounds = [true]} : vector<8xf32>, memref<5376x5376xf32>
      vector.transfer_write %cst, %alloc_5[%12, %35] {in_bounds = [true]} : vector<8xf32>, memref<5376x5376xf32>
      vector.transfer_write %cst, %alloc_5[%13, %35] {in_bounds = [true]} : vector<8xf32>, memref<5376x5376xf32>
      vector.transfer_write %cst, %alloc_5[%14, %35] {in_bounds = [true]} : vector<8xf32>, memref<5376x5376xf32>
      vector.transfer_write %cst, %alloc_5[%15, %35] {in_bounds = [true]} : vector<8xf32>, memref<5376x5376xf32>
      vector.transfer_write %cst, %alloc_5[%16, %35] {in_bounds = [true]} : vector<8xf32>, memref<5376x5376xf32>
      vector.transfer_write %cst, %alloc_5[%17, %35] {in_bounds = [true]} : vector<8xf32>, memref<5376x5376xf32>
      vector.transfer_write %cst, %alloc_5[%18, %35] {in_bounds = [true]} : vector<8xf32>, memref<5376x5376xf32>
      vector.transfer_write %cst, %alloc_5[%19, %35] {in_bounds = [true]} : vector<8xf32>, memref<5376x5376xf32>
      vector.transfer_write %cst, %alloc_5[%20, %35] {in_bounds = [true]} : vector<8xf32>, memref<5376x5376xf32>
      %36 = affine.apply #map32(%1, %3)
      vector.transfer_write %cst, %alloc_5[%36, %4] {in_bounds = [true]} : vector<8xf32>, memref<5376x5376xf32>
      %37 = affine.apply #map33(%1, %3)
      vector.transfer_write %cst, %alloc_5[%37, %4] {in_bounds = [true]} : vector<8xf32>, memref<5376x5376xf32>
      %38 = affine.apply #map34(%1, %3)
      vector.transfer_write %cst, %alloc_5[%38, %4] {in_bounds = [true]} : vector<8xf32>, memref<5376x5376xf32>
      %39 = affine.apply #map35(%1, %3)
      vector.transfer_write %cst, %alloc_5[%39, %4] {in_bounds = [true]} : vector<8xf32>, memref<5376x5376xf32>
      %40 = affine.apply #map36(%1, %3)
      vector.transfer_write %cst, %alloc_5[%40, %4] {in_bounds = [true]} : vector<8xf32>, memref<5376x5376xf32>
      %41 = affine.apply #map37(%1, %3)
      vector.transfer_write %cst, %alloc_5[%41, %4] {in_bounds = [true]} : vector<8xf32>, memref<5376x5376xf32>
      %42 = affine.apply #map38(%1, %3)
      vector.transfer_write %cst, %alloc_5[%42, %4] {in_bounds = [true]} : vector<8xf32>, memref<5376x5376xf32>
      %43 = affine.apply #map39(%1, %3)
      vector.transfer_write %cst, %alloc_5[%43, %4] {in_bounds = [true]} : vector<8xf32>, memref<5376x5376xf32>
      %44 = affine.apply #map40(%1, %3)
      vector.transfer_write %cst, %alloc_5[%44, %4] {in_bounds = [true]} : vector<8xf32>, memref<5376x5376xf32>
      %45 = affine.apply #map41(%1, %3)
      vector.transfer_write %cst, %alloc_5[%45, %4] {in_bounds = [true]} : vector<8xf32>, memref<5376x5376xf32>
      %46 = affine.apply #map42(%1, %3)
      vector.transfer_write %cst, %alloc_5[%46, %4] {in_bounds = [true]} : vector<8xf32>, memref<5376x5376xf32>
      %47 = affine.apply #map43(%1, %3)
      vector.transfer_write %cst, %alloc_5[%47, %4] {in_bounds = [true]} : vector<8xf32>, memref<5376x5376xf32>
      %48 = affine.apply #map44(%1, %3)
      vector.transfer_write %cst, %alloc_5[%48, %4] {in_bounds = [true]} : vector<8xf32>, memref<5376x5376xf32>
      %49 = affine.apply #map45(%1, %3)
      vector.transfer_write %cst, %alloc_5[%49, %4] {in_bounds = [true]} : vector<8xf32>, memref<5376x5376xf32>
      %50 = affine.apply #map46(%1, %3)
      vector.transfer_write %cst, %alloc_5[%50, %4] {in_bounds = [true]} : vector<8xf32>, memref<5376x5376xf32>
      %51 = affine.apply #map47(%1, %3)
      vector.transfer_write %cst, %alloc_5[%51, %4] {in_bounds = [true]} : vector<8xf32>, memref<5376x5376xf32>
      vector.transfer_write %cst, %alloc_5[%36, %21] {in_bounds = [true]} : vector<8xf32>, memref<5376x5376xf32>
      vector.transfer_write %cst, %alloc_5[%37, %21] {in_bounds = [true]} : vector<8xf32>, memref<5376x5376xf32>
      vector.transfer_write %cst, %alloc_5[%38, %21] {in_bounds = [true]} : vector<8xf32>, memref<5376x5376xf32>
      vector.transfer_write %cst, %alloc_5[%39, %21] {in_bounds = [true]} : vector<8xf32>, memref<5376x5376xf32>
      vector.transfer_write %cst, %alloc_5[%40, %21] {in_bounds = [true]} : vector<8xf32>, memref<5376x5376xf32>
      vector.transfer_write %cst, %alloc_5[%41, %21] {in_bounds = [true]} : vector<8xf32>, memref<5376x5376xf32>
      vector.transfer_write %cst, %alloc_5[%42, %21] {in_bounds = [true]} : vector<8xf32>, memref<5376x5376xf32>
      vector.transfer_write %cst, %alloc_5[%43, %21] {in_bounds = [true]} : vector<8xf32>, memref<5376x5376xf32>
      vector.transfer_write %cst, %alloc_5[%44, %21] {in_bounds = [true]} : vector<8xf32>, memref<5376x5376xf32>
      vector.transfer_write %cst, %alloc_5[%45, %21] {in_bounds = [true]} : vector<8xf32>, memref<5376x5376xf32>
      vector.transfer_write %cst, %alloc_5[%46, %21] {in_bounds = [true]} : vector<8xf32>, memref<5376x5376xf32>
      vector.transfer_write %cst, %alloc_5[%47, %21] {in_bounds = [true]} : vector<8xf32>, memref<5376x5376xf32>
      vector.transfer_write %cst, %alloc_5[%48, %21] {in_bounds = [true]} : vector<8xf32>, memref<5376x5376xf32>
      vector.transfer_write %cst, %alloc_5[%49, %21] {in_bounds = [true]} : vector<8xf32>, memref<5376x5376xf32>
      vector.transfer_write %cst, %alloc_5[%50, %21] {in_bounds = [true]} : vector<8xf32>, memref<5376x5376xf32>
      vector.transfer_write %cst, %alloc_5[%51, %21] {in_bounds = [true]} : vector<8xf32>, memref<5376x5376xf32>
      vector.transfer_write %cst, %alloc_5[%36, %22] {in_bounds = [true]} : vector<8xf32>, memref<5376x5376xf32>
      vector.transfer_write %cst, %alloc_5[%37, %22] {in_bounds = [true]} : vector<8xf32>, memref<5376x5376xf32>
      vector.transfer_write %cst, %alloc_5[%38, %22] {in_bounds = [true]} : vector<8xf32>, memref<5376x5376xf32>
      vector.transfer_write %cst, %alloc_5[%39, %22] {in_bounds = [true]} : vector<8xf32>, memref<5376x5376xf32>
      vector.transfer_write %cst, %alloc_5[%40, %22] {in_bounds = [true]} : vector<8xf32>, memref<5376x5376xf32>
      vector.transfer_write %cst, %alloc_5[%41, %22] {in_bounds = [true]} : vector<8xf32>, memref<5376x5376xf32>
      vector.transfer_write %cst, %alloc_5[%42, %22] {in_bounds = [true]} : vector<8xf32>, memref<5376x5376xf32>
      vector.transfer_write %cst, %alloc_5[%43, %22] {in_bounds = [true]} : vector<8xf32>, memref<5376x5376xf32>
      vector.transfer_write %cst, %alloc_5[%44, %22] {in_bounds = [true]} : vector<8xf32>, memref<5376x5376xf32>
      vector.transfer_write %cst, %alloc_5[%45, %22] {in_bounds = [true]} : vector<8xf32>, memref<5376x5376xf32>
      vector.transfer_write %cst, %alloc_5[%46, %22] {in_bounds = [true]} : vector<8xf32>, memref<5376x5376xf32>
      vector.transfer_write %cst, %alloc_5[%47, %22] {in_bounds = [true]} : vector<8xf32>, memref<5376x5376xf32>
      vector.transfer_write %cst, %alloc_5[%48, %22] {in_bounds = [true]} : vector<8xf32>, memref<5376x5376xf32>
      vector.transfer_write %cst, %alloc_5[%49, %22] {in_bounds = [true]} : vector<8xf32>, memref<5376x5376xf32>
      vector.transfer_write %cst, %alloc_5[%50, %22] {in_bounds = [true]} : vector<8xf32>, memref<5376x5376xf32>
      vector.transfer_write %cst, %alloc_5[%51, %22] {in_bounds = [true]} : vector<8xf32>, memref<5376x5376xf32>
      vector.transfer_write %cst, %alloc_5[%36, %23] {in_bounds = [true]} : vector<8xf32>, memref<5376x5376xf32>
      vector.transfer_write %cst, %alloc_5[%37, %23] {in_bounds = [true]} : vector<8xf32>, memref<5376x5376xf32>
      vector.transfer_write %cst, %alloc_5[%38, %23] {in_bounds = [true]} : vector<8xf32>, memref<5376x5376xf32>
      vector.transfer_write %cst, %alloc_5[%39, %23] {in_bounds = [true]} : vector<8xf32>, memref<5376x5376xf32>
      vector.transfer_write %cst, %alloc_5[%40, %23] {in_bounds = [true]} : vector<8xf32>, memref<5376x5376xf32>
      vector.transfer_write %cst, %alloc_5[%41, %23] {in_bounds = [true]} : vector<8xf32>, memref<5376x5376xf32>
      vector.transfer_write %cst, %alloc_5[%42, %23] {in_bounds = [true]} : vector<8xf32>, memref<5376x5376xf32>
      vector.transfer_write %cst, %alloc_5[%43, %23] {in_bounds = [true]} : vector<8xf32>, memref<5376x5376xf32>
      vector.transfer_write %cst, %alloc_5[%44, %23] {in_bounds = [true]} : vector<8xf32>, memref<5376x5376xf32>
      vector.transfer_write %cst, %alloc_5[%45, %23] {in_bounds = [true]} : vector<8xf32>, memref<5376x5376xf32>
      vector.transfer_write %cst, %alloc_5[%46, %23] {in_bounds = [true]} : vector<8xf32>, memref<5376x5376xf32>
      vector.transfer_write %cst, %alloc_5[%47, %23] {in_bounds = [true]} : vector<8xf32>, memref<5376x5376xf32>
      vector.transfer_write %cst, %alloc_5[%48, %23] {in_bounds = [true]} : vector<8xf32>, memref<5376x5376xf32>
      vector.transfer_write %cst, %alloc_5[%49, %23] {in_bounds = [true]} : vector<8xf32>, memref<5376x5376xf32>
      vector.transfer_write %cst, %alloc_5[%50, %23] {in_bounds = [true]} : vector<8xf32>, memref<5376x5376xf32>
      vector.transfer_write %cst, %alloc_5[%51, %23] {in_bounds = [true]} : vector<8xf32>, memref<5376x5376xf32>
      vector.transfer_write %cst, %alloc_5[%36, %24] {in_bounds = [true]} : vector<8xf32>, memref<5376x5376xf32>
      vector.transfer_write %cst, %alloc_5[%37, %24] {in_bounds = [true]} : vector<8xf32>, memref<5376x5376xf32>
      vector.transfer_write %cst, %alloc_5[%38, %24] {in_bounds = [true]} : vector<8xf32>, memref<5376x5376xf32>
      vector.transfer_write %cst, %alloc_5[%39, %24] {in_bounds = [true]} : vector<8xf32>, memref<5376x5376xf32>
      vector.transfer_write %cst, %alloc_5[%40, %24] {in_bounds = [true]} : vector<8xf32>, memref<5376x5376xf32>
      vector.transfer_write %cst, %alloc_5[%41, %24] {in_bounds = [true]} : vector<8xf32>, memref<5376x5376xf32>
      vector.transfer_write %cst, %alloc_5[%42, %24] {in_bounds = [true]} : vector<8xf32>, memref<5376x5376xf32>
      vector.transfer_write %cst, %alloc_5[%43, %24] {in_bounds = [true]} : vector<8xf32>, memref<5376x5376xf32>
      vector.transfer_write %cst, %alloc_5[%44, %24] {in_bounds = [true]} : vector<8xf32>, memref<5376x5376xf32>
      vector.transfer_write %cst, %alloc_5[%45, %24] {in_bounds = [true]} : vector<8xf32>, memref<5376x5376xf32>
      vector.transfer_write %cst, %alloc_5[%46, %24] {in_bounds = [true]} : vector<8xf32>, memref<5376x5376xf32>
      vector.transfer_write %cst, %alloc_5[%47, %24] {in_bounds = [true]} : vector<8xf32>, memref<5376x5376xf32>
      vector.transfer_write %cst, %alloc_5[%48, %24] {in_bounds = [true]} : vector<8xf32>, memref<5376x5376xf32>
      vector.transfer_write %cst, %alloc_5[%49, %24] {in_bounds = [true]} : vector<8xf32>, memref<5376x5376xf32>
      vector.transfer_write %cst, %alloc_5[%50, %24] {in_bounds = [true]} : vector<8xf32>, memref<5376x5376xf32>
      vector.transfer_write %cst, %alloc_5[%51, %24] {in_bounds = [true]} : vector<8xf32>, memref<5376x5376xf32>
      vector.transfer_write %cst, %alloc_5[%36, %25] {in_bounds = [true]} : vector<8xf32>, memref<5376x5376xf32>
      vector.transfer_write %cst, %alloc_5[%37, %25] {in_bounds = [true]} : vector<8xf32>, memref<5376x5376xf32>
      vector.transfer_write %cst, %alloc_5[%38, %25] {in_bounds = [true]} : vector<8xf32>, memref<5376x5376xf32>
      vector.transfer_write %cst, %alloc_5[%39, %25] {in_bounds = [true]} : vector<8xf32>, memref<5376x5376xf32>
      vector.transfer_write %cst, %alloc_5[%40, %25] {in_bounds = [true]} : vector<8xf32>, memref<5376x5376xf32>
      vector.transfer_write %cst, %alloc_5[%41, %25] {in_bounds = [true]} : vector<8xf32>, memref<5376x5376xf32>
      vector.transfer_write %cst, %alloc_5[%42, %25] {in_bounds = [true]} : vector<8xf32>, memref<5376x5376xf32>
      vector.transfer_write %cst, %alloc_5[%43, %25] {in_bounds = [true]} : vector<8xf32>, memref<5376x5376xf32>
      vector.transfer_write %cst, %alloc_5[%44, %25] {in_bounds = [true]} : vector<8xf32>, memref<5376x5376xf32>
      vector.transfer_write %cst, %alloc_5[%45, %25] {in_bounds = [true]} : vector<8xf32>, memref<5376x5376xf32>
      vector.transfer_write %cst, %alloc_5[%46, %25] {in_bounds = [true]} : vector<8xf32>, memref<5376x5376xf32>
      vector.transfer_write %cst, %alloc_5[%47, %25] {in_bounds = [true]} : vector<8xf32>, memref<5376x5376xf32>
      vector.transfer_write %cst, %alloc_5[%48, %25] {in_bounds = [true]} : vector<8xf32>, memref<5376x5376xf32>
      vector.transfer_write %cst, %alloc_5[%49, %25] {in_bounds = [true]} : vector<8xf32>, memref<5376x5376xf32>
      vector.transfer_write %cst, %alloc_5[%50, %25] {in_bounds = [true]} : vector<8xf32>, memref<5376x5376xf32>
      vector.transfer_write %cst, %alloc_5[%51, %25] {in_bounds = [true]} : vector<8xf32>, memref<5376x5376xf32>
      vector.transfer_write %cst, %alloc_5[%36, %26] {in_bounds = [true]} : vector<8xf32>, memref<5376x5376xf32>
      vector.transfer_write %cst, %alloc_5[%37, %26] {in_bounds = [true]} : vector<8xf32>, memref<5376x5376xf32>
      vector.transfer_write %cst, %alloc_5[%38, %26] {in_bounds = [true]} : vector<8xf32>, memref<5376x5376xf32>
      vector.transfer_write %cst, %alloc_5[%39, %26] {in_bounds = [true]} : vector<8xf32>, memref<5376x5376xf32>
      vector.transfer_write %cst, %alloc_5[%40, %26] {in_bounds = [true]} : vector<8xf32>, memref<5376x5376xf32>
      vector.transfer_write %cst, %alloc_5[%41, %26] {in_bounds = [true]} : vector<8xf32>, memref<5376x5376xf32>
      vector.transfer_write %cst, %alloc_5[%42, %26] {in_bounds = [true]} : vector<8xf32>, memref<5376x5376xf32>
      vector.transfer_write %cst, %alloc_5[%43, %26] {in_bounds = [true]} : vector<8xf32>, memref<5376x5376xf32>
      vector.transfer_write %cst, %alloc_5[%44, %26] {in_bounds = [true]} : vector<8xf32>, memref<5376x5376xf32>
      vector.transfer_write %cst, %alloc_5[%45, %26] {in_bounds = [true]} : vector<8xf32>, memref<5376x5376xf32>
      vector.transfer_write %cst, %alloc_5[%46, %26] {in_bounds = [true]} : vector<8xf32>, memref<5376x5376xf32>
      vector.transfer_write %cst, %alloc_5[%47, %26] {in_bounds = [true]} : vector<8xf32>, memref<5376x5376xf32>
      vector.transfer_write %cst, %alloc_5[%48, %26] {in_bounds = [true]} : vector<8xf32>, memref<5376x5376xf32>
      vector.transfer_write %cst, %alloc_5[%49, %26] {in_bounds = [true]} : vector<8xf32>, memref<5376x5376xf32>
      vector.transfer_write %cst, %alloc_5[%50, %26] {in_bounds = [true]} : vector<8xf32>, memref<5376x5376xf32>
      vector.transfer_write %cst, %alloc_5[%51, %26] {in_bounds = [true]} : vector<8xf32>, memref<5376x5376xf32>
      vector.transfer_write %cst, %alloc_5[%36, %27] {in_bounds = [true]} : vector<8xf32>, memref<5376x5376xf32>
      vector.transfer_write %cst, %alloc_5[%37, %27] {in_bounds = [true]} : vector<8xf32>, memref<5376x5376xf32>
      vector.transfer_write %cst, %alloc_5[%38, %27] {in_bounds = [true]} : vector<8xf32>, memref<5376x5376xf32>
      vector.transfer_write %cst, %alloc_5[%39, %27] {in_bounds = [true]} : vector<8xf32>, memref<5376x5376xf32>
      vector.transfer_write %cst, %alloc_5[%40, %27] {in_bounds = [true]} : vector<8xf32>, memref<5376x5376xf32>
      vector.transfer_write %cst, %alloc_5[%41, %27] {in_bounds = [true]} : vector<8xf32>, memref<5376x5376xf32>
      vector.transfer_write %cst, %alloc_5[%42, %27] {in_bounds = [true]} : vector<8xf32>, memref<5376x5376xf32>
      vector.transfer_write %cst, %alloc_5[%43, %27] {in_bounds = [true]} : vector<8xf32>, memref<5376x5376xf32>
      vector.transfer_write %cst, %alloc_5[%44, %27] {in_bounds = [true]} : vector<8xf32>, memref<5376x5376xf32>
      vector.transfer_write %cst, %alloc_5[%45, %27] {in_bounds = [true]} : vector<8xf32>, memref<5376x5376xf32>
      vector.transfer_write %cst, %alloc_5[%46, %27] {in_bounds = [true]} : vector<8xf32>, memref<5376x5376xf32>
      vector.transfer_write %cst, %alloc_5[%47, %27] {in_bounds = [true]} : vector<8xf32>, memref<5376x5376xf32>
      vector.transfer_write %cst, %alloc_5[%48, %27] {in_bounds = [true]} : vector<8xf32>, memref<5376x5376xf32>
      vector.transfer_write %cst, %alloc_5[%49, %27] {in_bounds = [true]} : vector<8xf32>, memref<5376x5376xf32>
      vector.transfer_write %cst, %alloc_5[%50, %27] {in_bounds = [true]} : vector<8xf32>, memref<5376x5376xf32>
      vector.transfer_write %cst, %alloc_5[%51, %27] {in_bounds = [true]} : vector<8xf32>, memref<5376x5376xf32>
      vector.transfer_write %cst, %alloc_5[%36, %28] {in_bounds = [true]} : vector<8xf32>, memref<5376x5376xf32>
      vector.transfer_write %cst, %alloc_5[%37, %28] {in_bounds = [true]} : vector<8xf32>, memref<5376x5376xf32>
      vector.transfer_write %cst, %alloc_5[%38, %28] {in_bounds = [true]} : vector<8xf32>, memref<5376x5376xf32>
      vector.transfer_write %cst, %alloc_5[%39, %28] {in_bounds = [true]} : vector<8xf32>, memref<5376x5376xf32>
      vector.transfer_write %cst, %alloc_5[%40, %28] {in_bounds = [true]} : vector<8xf32>, memref<5376x5376xf32>
      vector.transfer_write %cst, %alloc_5[%41, %28] {in_bounds = [true]} : vector<8xf32>, memref<5376x5376xf32>
      vector.transfer_write %cst, %alloc_5[%42, %28] {in_bounds = [true]} : vector<8xf32>, memref<5376x5376xf32>
      vector.transfer_write %cst, %alloc_5[%43, %28] {in_bounds = [true]} : vector<8xf32>, memref<5376x5376xf32>
      vector.transfer_write %cst, %alloc_5[%44, %28] {in_bounds = [true]} : vector<8xf32>, memref<5376x5376xf32>
      vector.transfer_write %cst, %alloc_5[%45, %28] {in_bounds = [true]} : vector<8xf32>, memref<5376x5376xf32>
      vector.transfer_write %cst, %alloc_5[%46, %28] {in_bounds = [true]} : vector<8xf32>, memref<5376x5376xf32>
      vector.transfer_write %cst, %alloc_5[%47, %28] {in_bounds = [true]} : vector<8xf32>, memref<5376x5376xf32>
      vector.transfer_write %cst, %alloc_5[%48, %28] {in_bounds = [true]} : vector<8xf32>, memref<5376x5376xf32>
      vector.transfer_write %cst, %alloc_5[%49, %28] {in_bounds = [true]} : vector<8xf32>, memref<5376x5376xf32>
      vector.transfer_write %cst, %alloc_5[%50, %28] {in_bounds = [true]} : vector<8xf32>, memref<5376x5376xf32>
      vector.transfer_write %cst, %alloc_5[%51, %28] {in_bounds = [true]} : vector<8xf32>, memref<5376x5376xf32>
      vector.transfer_write %cst, %alloc_5[%36, %29] {in_bounds = [true]} : vector<8xf32>, memref<5376x5376xf32>
      vector.transfer_write %cst, %alloc_5[%37, %29] {in_bounds = [true]} : vector<8xf32>, memref<5376x5376xf32>
      vector.transfer_write %cst, %alloc_5[%38, %29] {in_bounds = [true]} : vector<8xf32>, memref<5376x5376xf32>
      vector.transfer_write %cst, %alloc_5[%39, %29] {in_bounds = [true]} : vector<8xf32>, memref<5376x5376xf32>
      vector.transfer_write %cst, %alloc_5[%40, %29] {in_bounds = [true]} : vector<8xf32>, memref<5376x5376xf32>
      vector.transfer_write %cst, %alloc_5[%41, %29] {in_bounds = [true]} : vector<8xf32>, memref<5376x5376xf32>
      vector.transfer_write %cst, %alloc_5[%42, %29] {in_bounds = [true]} : vector<8xf32>, memref<5376x5376xf32>
      vector.transfer_write %cst, %alloc_5[%43, %29] {in_bounds = [true]} : vector<8xf32>, memref<5376x5376xf32>
      vector.transfer_write %cst, %alloc_5[%44, %29] {in_bounds = [true]} : vector<8xf32>, memref<5376x5376xf32>
      vector.transfer_write %cst, %alloc_5[%45, %29] {in_bounds = [true]} : vector<8xf32>, memref<5376x5376xf32>
      vector.transfer_write %cst, %alloc_5[%46, %29] {in_bounds = [true]} : vector<8xf32>, memref<5376x5376xf32>
      vector.transfer_write %cst, %alloc_5[%47, %29] {in_bounds = [true]} : vector<8xf32>, memref<5376x5376xf32>
      vector.transfer_write %cst, %alloc_5[%48, %29] {in_bounds = [true]} : vector<8xf32>, memref<5376x5376xf32>
      vector.transfer_write %cst, %alloc_5[%49, %29] {in_bounds = [true]} : vector<8xf32>, memref<5376x5376xf32>
      vector.transfer_write %cst, %alloc_5[%50, %29] {in_bounds = [true]} : vector<8xf32>, memref<5376x5376xf32>
      vector.transfer_write %cst, %alloc_5[%51, %29] {in_bounds = [true]} : vector<8xf32>, memref<5376x5376xf32>
      vector.transfer_write %cst, %alloc_5[%36, %30] {in_bounds = [true]} : vector<8xf32>, memref<5376x5376xf32>
      vector.transfer_write %cst, %alloc_5[%37, %30] {in_bounds = [true]} : vector<8xf32>, memref<5376x5376xf32>
      vector.transfer_write %cst, %alloc_5[%38, %30] {in_bounds = [true]} : vector<8xf32>, memref<5376x5376xf32>
      vector.transfer_write %cst, %alloc_5[%39, %30] {in_bounds = [true]} : vector<8xf32>, memref<5376x5376xf32>
      vector.transfer_write %cst, %alloc_5[%40, %30] {in_bounds = [true]} : vector<8xf32>, memref<5376x5376xf32>
      vector.transfer_write %cst, %alloc_5[%41, %30] {in_bounds = [true]} : vector<8xf32>, memref<5376x5376xf32>
      vector.transfer_write %cst, %alloc_5[%42, %30] {in_bounds = [true]} : vector<8xf32>, memref<5376x5376xf32>
      vector.transfer_write %cst, %alloc_5[%43, %30] {in_bounds = [true]} : vector<8xf32>, memref<5376x5376xf32>
      vector.transfer_write %cst, %alloc_5[%44, %30] {in_bounds = [true]} : vector<8xf32>, memref<5376x5376xf32>
      vector.transfer_write %cst, %alloc_5[%45, %30] {in_bounds = [true]} : vector<8xf32>, memref<5376x5376xf32>
      vector.transfer_write %cst, %alloc_5[%46, %30] {in_bounds = [true]} : vector<8xf32>, memref<5376x5376xf32>
      vector.transfer_write %cst, %alloc_5[%47, %30] {in_bounds = [true]} : vector<8xf32>, memref<5376x5376xf32>
      vector.transfer_write %cst, %alloc_5[%48, %30] {in_bounds = [true]} : vector<8xf32>, memref<5376x5376xf32>
      vector.transfer_write %cst, %alloc_5[%49, %30] {in_bounds = [true]} : vector<8xf32>, memref<5376x5376xf32>
      vector.transfer_write %cst, %alloc_5[%50, %30] {in_bounds = [true]} : vector<8xf32>, memref<5376x5376xf32>
      vector.transfer_write %cst, %alloc_5[%51, %30] {in_bounds = [true]} : vector<8xf32>, memref<5376x5376xf32>
      vector.transfer_write %cst, %alloc_5[%36, %31] {in_bounds = [true]} : vector<8xf32>, memref<5376x5376xf32>
      vector.transfer_write %cst, %alloc_5[%37, %31] {in_bounds = [true]} : vector<8xf32>, memref<5376x5376xf32>
      vector.transfer_write %cst, %alloc_5[%38, %31] {in_bounds = [true]} : vector<8xf32>, memref<5376x5376xf32>
      vector.transfer_write %cst, %alloc_5[%39, %31] {in_bounds = [true]} : vector<8xf32>, memref<5376x5376xf32>
      vector.transfer_write %cst, %alloc_5[%40, %31] {in_bounds = [true]} : vector<8xf32>, memref<5376x5376xf32>
      vector.transfer_write %cst, %alloc_5[%41, %31] {in_bounds = [true]} : vector<8xf32>, memref<5376x5376xf32>
      vector.transfer_write %cst, %alloc_5[%42, %31] {in_bounds = [true]} : vector<8xf32>, memref<5376x5376xf32>
      vector.transfer_write %cst, %alloc_5[%43, %31] {in_bounds = [true]} : vector<8xf32>, memref<5376x5376xf32>
      vector.transfer_write %cst, %alloc_5[%44, %31] {in_bounds = [true]} : vector<8xf32>, memref<5376x5376xf32>
      vector.transfer_write %cst, %alloc_5[%45, %31] {in_bounds = [true]} : vector<8xf32>, memref<5376x5376xf32>
      vector.transfer_write %cst, %alloc_5[%46, %31] {in_bounds = [true]} : vector<8xf32>, memref<5376x5376xf32>
      vector.transfer_write %cst, %alloc_5[%47, %31] {in_bounds = [true]} : vector<8xf32>, memref<5376x5376xf32>
      vector.transfer_write %cst, %alloc_5[%48, %31] {in_bounds = [true]} : vector<8xf32>, memref<5376x5376xf32>
      vector.transfer_write %cst, %alloc_5[%49, %31] {in_bounds = [true]} : vector<8xf32>, memref<5376x5376xf32>
      vector.transfer_write %cst, %alloc_5[%50, %31] {in_bounds = [true]} : vector<8xf32>, memref<5376x5376xf32>
      vector.transfer_write %cst, %alloc_5[%51, %31] {in_bounds = [true]} : vector<8xf32>, memref<5376x5376xf32>
      vector.transfer_write %cst, %alloc_5[%36, %32] {in_bounds = [true]} : vector<8xf32>, memref<5376x5376xf32>
      vector.transfer_write %cst, %alloc_5[%37, %32] {in_bounds = [true]} : vector<8xf32>, memref<5376x5376xf32>
      vector.transfer_write %cst, %alloc_5[%38, %32] {in_bounds = [true]} : vector<8xf32>, memref<5376x5376xf32>
      vector.transfer_write %cst, %alloc_5[%39, %32] {in_bounds = [true]} : vector<8xf32>, memref<5376x5376xf32>
      vector.transfer_write %cst, %alloc_5[%40, %32] {in_bounds = [true]} : vector<8xf32>, memref<5376x5376xf32>
      vector.transfer_write %cst, %alloc_5[%41, %32] {in_bounds = [true]} : vector<8xf32>, memref<5376x5376xf32>
      vector.transfer_write %cst, %alloc_5[%42, %32] {in_bounds = [true]} : vector<8xf32>, memref<5376x5376xf32>
      vector.transfer_write %cst, %alloc_5[%43, %32] {in_bounds = [true]} : vector<8xf32>, memref<5376x5376xf32>
      vector.transfer_write %cst, %alloc_5[%44, %32] {in_bounds = [true]} : vector<8xf32>, memref<5376x5376xf32>
      vector.transfer_write %cst, %alloc_5[%45, %32] {in_bounds = [true]} : vector<8xf32>, memref<5376x5376xf32>
      vector.transfer_write %cst, %alloc_5[%46, %32] {in_bounds = [true]} : vector<8xf32>, memref<5376x5376xf32>
      vector.transfer_write %cst, %alloc_5[%47, %32] {in_bounds = [true]} : vector<8xf32>, memref<5376x5376xf32>
      vector.transfer_write %cst, %alloc_5[%48, %32] {in_bounds = [true]} : vector<8xf32>, memref<5376x5376xf32>
      vector.transfer_write %cst, %alloc_5[%49, %32] {in_bounds = [true]} : vector<8xf32>, memref<5376x5376xf32>
      vector.transfer_write %cst, %alloc_5[%50, %32] {in_bounds = [true]} : vector<8xf32>, memref<5376x5376xf32>
      vector.transfer_write %cst, %alloc_5[%51, %32] {in_bounds = [true]} : vector<8xf32>, memref<5376x5376xf32>
      vector.transfer_write %cst, %alloc_5[%36, %33] {in_bounds = [true]} : vector<8xf32>, memref<5376x5376xf32>
      vector.transfer_write %cst, %alloc_5[%37, %33] {in_bounds = [true]} : vector<8xf32>, memref<5376x5376xf32>
      vector.transfer_write %cst, %alloc_5[%38, %33] {in_bounds = [true]} : vector<8xf32>, memref<5376x5376xf32>
      vector.transfer_write %cst, %alloc_5[%39, %33] {in_bounds = [true]} : vector<8xf32>, memref<5376x5376xf32>
      vector.transfer_write %cst, %alloc_5[%40, %33] {in_bounds = [true]} : vector<8xf32>, memref<5376x5376xf32>
      vector.transfer_write %cst, %alloc_5[%41, %33] {in_bounds = [true]} : vector<8xf32>, memref<5376x5376xf32>
      vector.transfer_write %cst, %alloc_5[%42, %33] {in_bounds = [true]} : vector<8xf32>, memref<5376x5376xf32>
      vector.transfer_write %cst, %alloc_5[%43, %33] {in_bounds = [true]} : vector<8xf32>, memref<5376x5376xf32>
      vector.transfer_write %cst, %alloc_5[%44, %33] {in_bounds = [true]} : vector<8xf32>, memref<5376x5376xf32>
      vector.transfer_write %cst, %alloc_5[%45, %33] {in_bounds = [true]} : vector<8xf32>, memref<5376x5376xf32>
      vector.transfer_write %cst, %alloc_5[%46, %33] {in_bounds = [true]} : vector<8xf32>, memref<5376x5376xf32>
      vector.transfer_write %cst, %alloc_5[%47, %33] {in_bounds = [true]} : vector<8xf32>, memref<5376x5376xf32>
      vector.transfer_write %cst, %alloc_5[%48, %33] {in_bounds = [true]} : vector<8xf32>, memref<5376x5376xf32>
      vector.transfer_write %cst, %alloc_5[%49, %33] {in_bounds = [true]} : vector<8xf32>, memref<5376x5376xf32>
      vector.transfer_write %cst, %alloc_5[%50, %33] {in_bounds = [true]} : vector<8xf32>, memref<5376x5376xf32>
      vector.transfer_write %cst, %alloc_5[%51, %33] {in_bounds = [true]} : vector<8xf32>, memref<5376x5376xf32>
      vector.transfer_write %cst, %alloc_5[%36, %34] {in_bounds = [true]} : vector<8xf32>, memref<5376x5376xf32>
      vector.transfer_write %cst, %alloc_5[%37, %34] {in_bounds = [true]} : vector<8xf32>, memref<5376x5376xf32>
      vector.transfer_write %cst, %alloc_5[%38, %34] {in_bounds = [true]} : vector<8xf32>, memref<5376x5376xf32>
      vector.transfer_write %cst, %alloc_5[%39, %34] {in_bounds = [true]} : vector<8xf32>, memref<5376x5376xf32>
      vector.transfer_write %cst, %alloc_5[%40, %34] {in_bounds = [true]} : vector<8xf32>, memref<5376x5376xf32>
      vector.transfer_write %cst, %alloc_5[%41, %34] {in_bounds = [true]} : vector<8xf32>, memref<5376x5376xf32>
      vector.transfer_write %cst, %alloc_5[%42, %34] {in_bounds = [true]} : vector<8xf32>, memref<5376x5376xf32>
      vector.transfer_write %cst, %alloc_5[%43, %34] {in_bounds = [true]} : vector<8xf32>, memref<5376x5376xf32>
      vector.transfer_write %cst, %alloc_5[%44, %34] {in_bounds = [true]} : vector<8xf32>, memref<5376x5376xf32>
      vector.transfer_write %cst, %alloc_5[%45, %34] {in_bounds = [true]} : vector<8xf32>, memref<5376x5376xf32>
      vector.transfer_write %cst, %alloc_5[%46, %34] {in_bounds = [true]} : vector<8xf32>, memref<5376x5376xf32>
      vector.transfer_write %cst, %alloc_5[%47, %34] {in_bounds = [true]} : vector<8xf32>, memref<5376x5376xf32>
      vector.transfer_write %cst, %alloc_5[%48, %34] {in_bounds = [true]} : vector<8xf32>, memref<5376x5376xf32>
      vector.transfer_write %cst, %alloc_5[%49, %34] {in_bounds = [true]} : vector<8xf32>, memref<5376x5376xf32>
      vector.transfer_write %cst, %alloc_5[%50, %34] {in_bounds = [true]} : vector<8xf32>, memref<5376x5376xf32>
      vector.transfer_write %cst, %alloc_5[%51, %34] {in_bounds = [true]} : vector<8xf32>, memref<5376x5376xf32>
      vector.transfer_write %cst, %alloc_5[%36, %35] {in_bounds = [true]} : vector<8xf32>, memref<5376x5376xf32>
      vector.transfer_write %cst, %alloc_5[%37, %35] {in_bounds = [true]} : vector<8xf32>, memref<5376x5376xf32>
      vector.transfer_write %cst, %alloc_5[%38, %35] {in_bounds = [true]} : vector<8xf32>, memref<5376x5376xf32>
      vector.transfer_write %cst, %alloc_5[%39, %35] {in_bounds = [true]} : vector<8xf32>, memref<5376x5376xf32>
      vector.transfer_write %cst, %alloc_5[%40, %35] {in_bounds = [true]} : vector<8xf32>, memref<5376x5376xf32>
      vector.transfer_write %cst, %alloc_5[%41, %35] {in_bounds = [true]} : vector<8xf32>, memref<5376x5376xf32>
      vector.transfer_write %cst, %alloc_5[%42, %35] {in_bounds = [true]} : vector<8xf32>, memref<5376x5376xf32>
      vector.transfer_write %cst, %alloc_5[%43, %35] {in_bounds = [true]} : vector<8xf32>, memref<5376x5376xf32>
      vector.transfer_write %cst, %alloc_5[%44, %35] {in_bounds = [true]} : vector<8xf32>, memref<5376x5376xf32>
      vector.transfer_write %cst, %alloc_5[%45, %35] {in_bounds = [true]} : vector<8xf32>, memref<5376x5376xf32>
      vector.transfer_write %cst, %alloc_5[%46, %35] {in_bounds = [true]} : vector<8xf32>, memref<5376x5376xf32>
      vector.transfer_write %cst, %alloc_5[%47, %35] {in_bounds = [true]} : vector<8xf32>, memref<5376x5376xf32>
      vector.transfer_write %cst, %alloc_5[%48, %35] {in_bounds = [true]} : vector<8xf32>, memref<5376x5376xf32>
      vector.transfer_write %cst, %alloc_5[%49, %35] {in_bounds = [true]} : vector<8xf32>, memref<5376x5376xf32>
      vector.transfer_write %cst, %alloc_5[%50, %35] {in_bounds = [true]} : vector<8xf32>, memref<5376x5376xf32>
      vector.transfer_write %cst, %alloc_5[%51, %35] {in_bounds = [true]} : vector<8xf32>, memref<5376x5376xf32>
      %52 = affine.apply #map48(%1, %3)
      vector.transfer_write %cst, %alloc_5[%52, %4] {in_bounds = [true]} : vector<8xf32>, memref<5376x5376xf32>
      %53 = affine.apply #map49(%1, %3)
      vector.transfer_write %cst, %alloc_5[%53, %4] {in_bounds = [true]} : vector<8xf32>, memref<5376x5376xf32>
      %54 = affine.apply #map50(%1, %3)
      vector.transfer_write %cst, %alloc_5[%54, %4] {in_bounds = [true]} : vector<8xf32>, memref<5376x5376xf32>
      %55 = affine.apply #map51(%1, %3)
      vector.transfer_write %cst, %alloc_5[%55, %4] {in_bounds = [true]} : vector<8xf32>, memref<5376x5376xf32>
      %56 = affine.apply #map52(%1, %3)
      vector.transfer_write %cst, %alloc_5[%56, %4] {in_bounds = [true]} : vector<8xf32>, memref<5376x5376xf32>
      %57 = affine.apply #map53(%1, %3)
      vector.transfer_write %cst, %alloc_5[%57, %4] {in_bounds = [true]} : vector<8xf32>, memref<5376x5376xf32>
      %58 = affine.apply #map54(%1, %3)
      vector.transfer_write %cst, %alloc_5[%58, %4] {in_bounds = [true]} : vector<8xf32>, memref<5376x5376xf32>
      %59 = affine.apply #map55(%1, %3)
      vector.transfer_write %cst, %alloc_5[%59, %4] {in_bounds = [true]} : vector<8xf32>, memref<5376x5376xf32>
      %60 = affine.apply #map56(%1, %3)
      vector.transfer_write %cst, %alloc_5[%60, %4] {in_bounds = [true]} : vector<8xf32>, memref<5376x5376xf32>
      %61 = affine.apply #map57(%1, %3)
      vector.transfer_write %cst, %alloc_5[%61, %4] {in_bounds = [true]} : vector<8xf32>, memref<5376x5376xf32>
      %62 = affine.apply #map58(%1, %3)
      vector.transfer_write %cst, %alloc_5[%62, %4] {in_bounds = [true]} : vector<8xf32>, memref<5376x5376xf32>
      %63 = affine.apply #map59(%1, %3)
      vector.transfer_write %cst, %alloc_5[%63, %4] {in_bounds = [true]} : vector<8xf32>, memref<5376x5376xf32>
      %64 = affine.apply #map60(%1, %3)
      vector.transfer_write %cst, %alloc_5[%64, %4] {in_bounds = [true]} : vector<8xf32>, memref<5376x5376xf32>
      %65 = affine.apply #map61(%1, %3)
      vector.transfer_write %cst, %alloc_5[%65, %4] {in_bounds = [true]} : vector<8xf32>, memref<5376x5376xf32>
      %66 = affine.apply #map62(%1, %3)
      vector.transfer_write %cst, %alloc_5[%66, %4] {in_bounds = [true]} : vector<8xf32>, memref<5376x5376xf32>
      %67 = affine.apply #map63(%1, %3)
      vector.transfer_write %cst, %alloc_5[%67, %4] {in_bounds = [true]} : vector<8xf32>, memref<5376x5376xf32>
      vector.transfer_write %cst, %alloc_5[%52, %21] {in_bounds = [true]} : vector<8xf32>, memref<5376x5376xf32>
      vector.transfer_write %cst, %alloc_5[%53, %21] {in_bounds = [true]} : vector<8xf32>, memref<5376x5376xf32>
      vector.transfer_write %cst, %alloc_5[%54, %21] {in_bounds = [true]} : vector<8xf32>, memref<5376x5376xf32>
      vector.transfer_write %cst, %alloc_5[%55, %21] {in_bounds = [true]} : vector<8xf32>, memref<5376x5376xf32>
      vector.transfer_write %cst, %alloc_5[%56, %21] {in_bounds = [true]} : vector<8xf32>, memref<5376x5376xf32>
      vector.transfer_write %cst, %alloc_5[%57, %21] {in_bounds = [true]} : vector<8xf32>, memref<5376x5376xf32>
      vector.transfer_write %cst, %alloc_5[%58, %21] {in_bounds = [true]} : vector<8xf32>, memref<5376x5376xf32>
      vector.transfer_write %cst, %alloc_5[%59, %21] {in_bounds = [true]} : vector<8xf32>, memref<5376x5376xf32>
      vector.transfer_write %cst, %alloc_5[%60, %21] {in_bounds = [true]} : vector<8xf32>, memref<5376x5376xf32>
      vector.transfer_write %cst, %alloc_5[%61, %21] {in_bounds = [true]} : vector<8xf32>, memref<5376x5376xf32>
      vector.transfer_write %cst, %alloc_5[%62, %21] {in_bounds = [true]} : vector<8xf32>, memref<5376x5376xf32>
      vector.transfer_write %cst, %alloc_5[%63, %21] {in_bounds = [true]} : vector<8xf32>, memref<5376x5376xf32>
      vector.transfer_write %cst, %alloc_5[%64, %21] {in_bounds = [true]} : vector<8xf32>, memref<5376x5376xf32>
      vector.transfer_write %cst, %alloc_5[%65, %21] {in_bounds = [true]} : vector<8xf32>, memref<5376x5376xf32>
      vector.transfer_write %cst, %alloc_5[%66, %21] {in_bounds = [true]} : vector<8xf32>, memref<5376x5376xf32>
      vector.transfer_write %cst, %alloc_5[%67, %21] {in_bounds = [true]} : vector<8xf32>, memref<5376x5376xf32>
      vector.transfer_write %cst, %alloc_5[%52, %22] {in_bounds = [true]} : vector<8xf32>, memref<5376x5376xf32>
      vector.transfer_write %cst, %alloc_5[%53, %22] {in_bounds = [true]} : vector<8xf32>, memref<5376x5376xf32>
      vector.transfer_write %cst, %alloc_5[%54, %22] {in_bounds = [true]} : vector<8xf32>, memref<5376x5376xf32>
      vector.transfer_write %cst, %alloc_5[%55, %22] {in_bounds = [true]} : vector<8xf32>, memref<5376x5376xf32>
      vector.transfer_write %cst, %alloc_5[%56, %22] {in_bounds = [true]} : vector<8xf32>, memref<5376x5376xf32>
      vector.transfer_write %cst, %alloc_5[%57, %22] {in_bounds = [true]} : vector<8xf32>, memref<5376x5376xf32>
      vector.transfer_write %cst, %alloc_5[%58, %22] {in_bounds = [true]} : vector<8xf32>, memref<5376x5376xf32>
      vector.transfer_write %cst, %alloc_5[%59, %22] {in_bounds = [true]} : vector<8xf32>, memref<5376x5376xf32>
      vector.transfer_write %cst, %alloc_5[%60, %22] {in_bounds = [true]} : vector<8xf32>, memref<5376x5376xf32>
      vector.transfer_write %cst, %alloc_5[%61, %22] {in_bounds = [true]} : vector<8xf32>, memref<5376x5376xf32>
      vector.transfer_write %cst, %alloc_5[%62, %22] {in_bounds = [true]} : vector<8xf32>, memref<5376x5376xf32>
      vector.transfer_write %cst, %alloc_5[%63, %22] {in_bounds = [true]} : vector<8xf32>, memref<5376x5376xf32>
      vector.transfer_write %cst, %alloc_5[%64, %22] {in_bounds = [true]} : vector<8xf32>, memref<5376x5376xf32>
      vector.transfer_write %cst, %alloc_5[%65, %22] {in_bounds = [true]} : vector<8xf32>, memref<5376x5376xf32>
      vector.transfer_write %cst, %alloc_5[%66, %22] {in_bounds = [true]} : vector<8xf32>, memref<5376x5376xf32>
      vector.transfer_write %cst, %alloc_5[%67, %22] {in_bounds = [true]} : vector<8xf32>, memref<5376x5376xf32>
      vector.transfer_write %cst, %alloc_5[%52, %23] {in_bounds = [true]} : vector<8xf32>, memref<5376x5376xf32>
      vector.transfer_write %cst, %alloc_5[%53, %23] {in_bounds = [true]} : vector<8xf32>, memref<5376x5376xf32>
      vector.transfer_write %cst, %alloc_5[%54, %23] {in_bounds = [true]} : vector<8xf32>, memref<5376x5376xf32>
      vector.transfer_write %cst, %alloc_5[%55, %23] {in_bounds = [true]} : vector<8xf32>, memref<5376x5376xf32>
      vector.transfer_write %cst, %alloc_5[%56, %23] {in_bounds = [true]} : vector<8xf32>, memref<5376x5376xf32>
      vector.transfer_write %cst, %alloc_5[%57, %23] {in_bounds = [true]} : vector<8xf32>, memref<5376x5376xf32>
      vector.transfer_write %cst, %alloc_5[%58, %23] {in_bounds = [true]} : vector<8xf32>, memref<5376x5376xf32>
      vector.transfer_write %cst, %alloc_5[%59, %23] {in_bounds = [true]} : vector<8xf32>, memref<5376x5376xf32>
      vector.transfer_write %cst, %alloc_5[%60, %23] {in_bounds = [true]} : vector<8xf32>, memref<5376x5376xf32>
      vector.transfer_write %cst, %alloc_5[%61, %23] {in_bounds = [true]} : vector<8xf32>, memref<5376x5376xf32>
      vector.transfer_write %cst, %alloc_5[%62, %23] {in_bounds = [true]} : vector<8xf32>, memref<5376x5376xf32>
      vector.transfer_write %cst, %alloc_5[%63, %23] {in_bounds = [true]} : vector<8xf32>, memref<5376x5376xf32>
      vector.transfer_write %cst, %alloc_5[%64, %23] {in_bounds = [true]} : vector<8xf32>, memref<5376x5376xf32>
      vector.transfer_write %cst, %alloc_5[%65, %23] {in_bounds = [true]} : vector<8xf32>, memref<5376x5376xf32>
      vector.transfer_write %cst, %alloc_5[%66, %23] {in_bounds = [true]} : vector<8xf32>, memref<5376x5376xf32>
      vector.transfer_write %cst, %alloc_5[%67, %23] {in_bounds = [true]} : vector<8xf32>, memref<5376x5376xf32>
      vector.transfer_write %cst, %alloc_5[%52, %24] {in_bounds = [true]} : vector<8xf32>, memref<5376x5376xf32>
      vector.transfer_write %cst, %alloc_5[%53, %24] {in_bounds = [true]} : vector<8xf32>, memref<5376x5376xf32>
      vector.transfer_write %cst, %alloc_5[%54, %24] {in_bounds = [true]} : vector<8xf32>, memref<5376x5376xf32>
      vector.transfer_write %cst, %alloc_5[%55, %24] {in_bounds = [true]} : vector<8xf32>, memref<5376x5376xf32>
      vector.transfer_write %cst, %alloc_5[%56, %24] {in_bounds = [true]} : vector<8xf32>, memref<5376x5376xf32>
      vector.transfer_write %cst, %alloc_5[%57, %24] {in_bounds = [true]} : vector<8xf32>, memref<5376x5376xf32>
      vector.transfer_write %cst, %alloc_5[%58, %24] {in_bounds = [true]} : vector<8xf32>, memref<5376x5376xf32>
      vector.transfer_write %cst, %alloc_5[%59, %24] {in_bounds = [true]} : vector<8xf32>, memref<5376x5376xf32>
      vector.transfer_write %cst, %alloc_5[%60, %24] {in_bounds = [true]} : vector<8xf32>, memref<5376x5376xf32>
      vector.transfer_write %cst, %alloc_5[%61, %24] {in_bounds = [true]} : vector<8xf32>, memref<5376x5376xf32>
      vector.transfer_write %cst, %alloc_5[%62, %24] {in_bounds = [true]} : vector<8xf32>, memref<5376x5376xf32>
      vector.transfer_write %cst, %alloc_5[%63, %24] {in_bounds = [true]} : vector<8xf32>, memref<5376x5376xf32>
      vector.transfer_write %cst, %alloc_5[%64, %24] {in_bounds = [true]} : vector<8xf32>, memref<5376x5376xf32>
      vector.transfer_write %cst, %alloc_5[%65, %24] {in_bounds = [true]} : vector<8xf32>, memref<5376x5376xf32>
      vector.transfer_write %cst, %alloc_5[%66, %24] {in_bounds = [true]} : vector<8xf32>, memref<5376x5376xf32>
      vector.transfer_write %cst, %alloc_5[%67, %24] {in_bounds = [true]} : vector<8xf32>, memref<5376x5376xf32>
      vector.transfer_write %cst, %alloc_5[%52, %25] {in_bounds = [true]} : vector<8xf32>, memref<5376x5376xf32>
      vector.transfer_write %cst, %alloc_5[%53, %25] {in_bounds = [true]} : vector<8xf32>, memref<5376x5376xf32>
      vector.transfer_write %cst, %alloc_5[%54, %25] {in_bounds = [true]} : vector<8xf32>, memref<5376x5376xf32>
      vector.transfer_write %cst, %alloc_5[%55, %25] {in_bounds = [true]} : vector<8xf32>, memref<5376x5376xf32>
      vector.transfer_write %cst, %alloc_5[%56, %25] {in_bounds = [true]} : vector<8xf32>, memref<5376x5376xf32>
      vector.transfer_write %cst, %alloc_5[%57, %25] {in_bounds = [true]} : vector<8xf32>, memref<5376x5376xf32>
      vector.transfer_write %cst, %alloc_5[%58, %25] {in_bounds = [true]} : vector<8xf32>, memref<5376x5376xf32>
      vector.transfer_write %cst, %alloc_5[%59, %25] {in_bounds = [true]} : vector<8xf32>, memref<5376x5376xf32>
      vector.transfer_write %cst, %alloc_5[%60, %25] {in_bounds = [true]} : vector<8xf32>, memref<5376x5376xf32>
      vector.transfer_write %cst, %alloc_5[%61, %25] {in_bounds = [true]} : vector<8xf32>, memref<5376x5376xf32>
      vector.transfer_write %cst, %alloc_5[%62, %25] {in_bounds = [true]} : vector<8xf32>, memref<5376x5376xf32>
      vector.transfer_write %cst, %alloc_5[%63, %25] {in_bounds = [true]} : vector<8xf32>, memref<5376x5376xf32>
      vector.transfer_write %cst, %alloc_5[%64, %25] {in_bounds = [true]} : vector<8xf32>, memref<5376x5376xf32>
      vector.transfer_write %cst, %alloc_5[%65, %25] {in_bounds = [true]} : vector<8xf32>, memref<5376x5376xf32>
      vector.transfer_write %cst, %alloc_5[%66, %25] {in_bounds = [true]} : vector<8xf32>, memref<5376x5376xf32>
      vector.transfer_write %cst, %alloc_5[%67, %25] {in_bounds = [true]} : vector<8xf32>, memref<5376x5376xf32>
      vector.transfer_write %cst, %alloc_5[%52, %26] {in_bounds = [true]} : vector<8xf32>, memref<5376x5376xf32>
      vector.transfer_write %cst, %alloc_5[%53, %26] {in_bounds = [true]} : vector<8xf32>, memref<5376x5376xf32>
      vector.transfer_write %cst, %alloc_5[%54, %26] {in_bounds = [true]} : vector<8xf32>, memref<5376x5376xf32>
      vector.transfer_write %cst, %alloc_5[%55, %26] {in_bounds = [true]} : vector<8xf32>, memref<5376x5376xf32>
      vector.transfer_write %cst, %alloc_5[%56, %26] {in_bounds = [true]} : vector<8xf32>, memref<5376x5376xf32>
      vector.transfer_write %cst, %alloc_5[%57, %26] {in_bounds = [true]} : vector<8xf32>, memref<5376x5376xf32>
      vector.transfer_write %cst, %alloc_5[%58, %26] {in_bounds = [true]} : vector<8xf32>, memref<5376x5376xf32>
      vector.transfer_write %cst, %alloc_5[%59, %26] {in_bounds = [true]} : vector<8xf32>, memref<5376x5376xf32>
      vector.transfer_write %cst, %alloc_5[%60, %26] {in_bounds = [true]} : vector<8xf32>, memref<5376x5376xf32>
      vector.transfer_write %cst, %alloc_5[%61, %26] {in_bounds = [true]} : vector<8xf32>, memref<5376x5376xf32>
      vector.transfer_write %cst, %alloc_5[%62, %26] {in_bounds = [true]} : vector<8xf32>, memref<5376x5376xf32>
      vector.transfer_write %cst, %alloc_5[%63, %26] {in_bounds = [true]} : vector<8xf32>, memref<5376x5376xf32>
      vector.transfer_write %cst, %alloc_5[%64, %26] {in_bounds = [true]} : vector<8xf32>, memref<5376x5376xf32>
      vector.transfer_write %cst, %alloc_5[%65, %26] {in_bounds = [true]} : vector<8xf32>, memref<5376x5376xf32>
      vector.transfer_write %cst, %alloc_5[%66, %26] {in_bounds = [true]} : vector<8xf32>, memref<5376x5376xf32>
      vector.transfer_write %cst, %alloc_5[%67, %26] {in_bounds = [true]} : vector<8xf32>, memref<5376x5376xf32>
      vector.transfer_write %cst, %alloc_5[%52, %27] {in_bounds = [true]} : vector<8xf32>, memref<5376x5376xf32>
      vector.transfer_write %cst, %alloc_5[%53, %27] {in_bounds = [true]} : vector<8xf32>, memref<5376x5376xf32>
      vector.transfer_write %cst, %alloc_5[%54, %27] {in_bounds = [true]} : vector<8xf32>, memref<5376x5376xf32>
      vector.transfer_write %cst, %alloc_5[%55, %27] {in_bounds = [true]} : vector<8xf32>, memref<5376x5376xf32>
      vector.transfer_write %cst, %alloc_5[%56, %27] {in_bounds = [true]} : vector<8xf32>, memref<5376x5376xf32>
      vector.transfer_write %cst, %alloc_5[%57, %27] {in_bounds = [true]} : vector<8xf32>, memref<5376x5376xf32>
      vector.transfer_write %cst, %alloc_5[%58, %27] {in_bounds = [true]} : vector<8xf32>, memref<5376x5376xf32>
      vector.transfer_write %cst, %alloc_5[%59, %27] {in_bounds = [true]} : vector<8xf32>, memref<5376x5376xf32>
      vector.transfer_write %cst, %alloc_5[%60, %27] {in_bounds = [true]} : vector<8xf32>, memref<5376x5376xf32>
      vector.transfer_write %cst, %alloc_5[%61, %27] {in_bounds = [true]} : vector<8xf32>, memref<5376x5376xf32>
      vector.transfer_write %cst, %alloc_5[%62, %27] {in_bounds = [true]} : vector<8xf32>, memref<5376x5376xf32>
      vector.transfer_write %cst, %alloc_5[%63, %27] {in_bounds = [true]} : vector<8xf32>, memref<5376x5376xf32>
      vector.transfer_write %cst, %alloc_5[%64, %27] {in_bounds = [true]} : vector<8xf32>, memref<5376x5376xf32>
      vector.transfer_write %cst, %alloc_5[%65, %27] {in_bounds = [true]} : vector<8xf32>, memref<5376x5376xf32>
      vector.transfer_write %cst, %alloc_5[%66, %27] {in_bounds = [true]} : vector<8xf32>, memref<5376x5376xf32>
      vector.transfer_write %cst, %alloc_5[%67, %27] {in_bounds = [true]} : vector<8xf32>, memref<5376x5376xf32>
      vector.transfer_write %cst, %alloc_5[%52, %28] {in_bounds = [true]} : vector<8xf32>, memref<5376x5376xf32>
      vector.transfer_write %cst, %alloc_5[%53, %28] {in_bounds = [true]} : vector<8xf32>, memref<5376x5376xf32>
      vector.transfer_write %cst, %alloc_5[%54, %28] {in_bounds = [true]} : vector<8xf32>, memref<5376x5376xf32>
      vector.transfer_write %cst, %alloc_5[%55, %28] {in_bounds = [true]} : vector<8xf32>, memref<5376x5376xf32>
      vector.transfer_write %cst, %alloc_5[%56, %28] {in_bounds = [true]} : vector<8xf32>, memref<5376x5376xf32>
      vector.transfer_write %cst, %alloc_5[%57, %28] {in_bounds = [true]} : vector<8xf32>, memref<5376x5376xf32>
      vector.transfer_write %cst, %alloc_5[%58, %28] {in_bounds = [true]} : vector<8xf32>, memref<5376x5376xf32>
      vector.transfer_write %cst, %alloc_5[%59, %28] {in_bounds = [true]} : vector<8xf32>, memref<5376x5376xf32>
      vector.transfer_write %cst, %alloc_5[%60, %28] {in_bounds = [true]} : vector<8xf32>, memref<5376x5376xf32>
      vector.transfer_write %cst, %alloc_5[%61, %28] {in_bounds = [true]} : vector<8xf32>, memref<5376x5376xf32>
      vector.transfer_write %cst, %alloc_5[%62, %28] {in_bounds = [true]} : vector<8xf32>, memref<5376x5376xf32>
      vector.transfer_write %cst, %alloc_5[%63, %28] {in_bounds = [true]} : vector<8xf32>, memref<5376x5376xf32>
      vector.transfer_write %cst, %alloc_5[%64, %28] {in_bounds = [true]} : vector<8xf32>, memref<5376x5376xf32>
      vector.transfer_write %cst, %alloc_5[%65, %28] {in_bounds = [true]} : vector<8xf32>, memref<5376x5376xf32>
      vector.transfer_write %cst, %alloc_5[%66, %28] {in_bounds = [true]} : vector<8xf32>, memref<5376x5376xf32>
      vector.transfer_write %cst, %alloc_5[%67, %28] {in_bounds = [true]} : vector<8xf32>, memref<5376x5376xf32>
      vector.transfer_write %cst, %alloc_5[%52, %29] {in_bounds = [true]} : vector<8xf32>, memref<5376x5376xf32>
      vector.transfer_write %cst, %alloc_5[%53, %29] {in_bounds = [true]} : vector<8xf32>, memref<5376x5376xf32>
      vector.transfer_write %cst, %alloc_5[%54, %29] {in_bounds = [true]} : vector<8xf32>, memref<5376x5376xf32>
      vector.transfer_write %cst, %alloc_5[%55, %29] {in_bounds = [true]} : vector<8xf32>, memref<5376x5376xf32>
      vector.transfer_write %cst, %alloc_5[%56, %29] {in_bounds = [true]} : vector<8xf32>, memref<5376x5376xf32>
      vector.transfer_write %cst, %alloc_5[%57, %29] {in_bounds = [true]} : vector<8xf32>, memref<5376x5376xf32>
      vector.transfer_write %cst, %alloc_5[%58, %29] {in_bounds = [true]} : vector<8xf32>, memref<5376x5376xf32>
      vector.transfer_write %cst, %alloc_5[%59, %29] {in_bounds = [true]} : vector<8xf32>, memref<5376x5376xf32>
      vector.transfer_write %cst, %alloc_5[%60, %29] {in_bounds = [true]} : vector<8xf32>, memref<5376x5376xf32>
      vector.transfer_write %cst, %alloc_5[%61, %29] {in_bounds = [true]} : vector<8xf32>, memref<5376x5376xf32>
      vector.transfer_write %cst, %alloc_5[%62, %29] {in_bounds = [true]} : vector<8xf32>, memref<5376x5376xf32>
      vector.transfer_write %cst, %alloc_5[%63, %29] {in_bounds = [true]} : vector<8xf32>, memref<5376x5376xf32>
      vector.transfer_write %cst, %alloc_5[%64, %29] {in_bounds = [true]} : vector<8xf32>, memref<5376x5376xf32>
      vector.transfer_write %cst, %alloc_5[%65, %29] {in_bounds = [true]} : vector<8xf32>, memref<5376x5376xf32>
      vector.transfer_write %cst, %alloc_5[%66, %29] {in_bounds = [true]} : vector<8xf32>, memref<5376x5376xf32>
      vector.transfer_write %cst, %alloc_5[%67, %29] {in_bounds = [true]} : vector<8xf32>, memref<5376x5376xf32>
      vector.transfer_write %cst, %alloc_5[%52, %30] {in_bounds = [true]} : vector<8xf32>, memref<5376x5376xf32>
      vector.transfer_write %cst, %alloc_5[%53, %30] {in_bounds = [true]} : vector<8xf32>, memref<5376x5376xf32>
      vector.transfer_write %cst, %alloc_5[%54, %30] {in_bounds = [true]} : vector<8xf32>, memref<5376x5376xf32>
      vector.transfer_write %cst, %alloc_5[%55, %30] {in_bounds = [true]} : vector<8xf32>, memref<5376x5376xf32>
      vector.transfer_write %cst, %alloc_5[%56, %30] {in_bounds = [true]} : vector<8xf32>, memref<5376x5376xf32>
      vector.transfer_write %cst, %alloc_5[%57, %30] {in_bounds = [true]} : vector<8xf32>, memref<5376x5376xf32>
      vector.transfer_write %cst, %alloc_5[%58, %30] {in_bounds = [true]} : vector<8xf32>, memref<5376x5376xf32>
      vector.transfer_write %cst, %alloc_5[%59, %30] {in_bounds = [true]} : vector<8xf32>, memref<5376x5376xf32>
      vector.transfer_write %cst, %alloc_5[%60, %30] {in_bounds = [true]} : vector<8xf32>, memref<5376x5376xf32>
      vector.transfer_write %cst, %alloc_5[%61, %30] {in_bounds = [true]} : vector<8xf32>, memref<5376x5376xf32>
      vector.transfer_write %cst, %alloc_5[%62, %30] {in_bounds = [true]} : vector<8xf32>, memref<5376x5376xf32>
      vector.transfer_write %cst, %alloc_5[%63, %30] {in_bounds = [true]} : vector<8xf32>, memref<5376x5376xf32>
      vector.transfer_write %cst, %alloc_5[%64, %30] {in_bounds = [true]} : vector<8xf32>, memref<5376x5376xf32>
      vector.transfer_write %cst, %alloc_5[%65, %30] {in_bounds = [true]} : vector<8xf32>, memref<5376x5376xf32>
      vector.transfer_write %cst, %alloc_5[%66, %30] {in_bounds = [true]} : vector<8xf32>, memref<5376x5376xf32>
      vector.transfer_write %cst, %alloc_5[%67, %30] {in_bounds = [true]} : vector<8xf32>, memref<5376x5376xf32>
      vector.transfer_write %cst, %alloc_5[%52, %31] {in_bounds = [true]} : vector<8xf32>, memref<5376x5376xf32>
      vector.transfer_write %cst, %alloc_5[%53, %31] {in_bounds = [true]} : vector<8xf32>, memref<5376x5376xf32>
      vector.transfer_write %cst, %alloc_5[%54, %31] {in_bounds = [true]} : vector<8xf32>, memref<5376x5376xf32>
      vector.transfer_write %cst, %alloc_5[%55, %31] {in_bounds = [true]} : vector<8xf32>, memref<5376x5376xf32>
      vector.transfer_write %cst, %alloc_5[%56, %31] {in_bounds = [true]} : vector<8xf32>, memref<5376x5376xf32>
      vector.transfer_write %cst, %alloc_5[%57, %31] {in_bounds = [true]} : vector<8xf32>, memref<5376x5376xf32>
      vector.transfer_write %cst, %alloc_5[%58, %31] {in_bounds = [true]} : vector<8xf32>, memref<5376x5376xf32>
      vector.transfer_write %cst, %alloc_5[%59, %31] {in_bounds = [true]} : vector<8xf32>, memref<5376x5376xf32>
      vector.transfer_write %cst, %alloc_5[%60, %31] {in_bounds = [true]} : vector<8xf32>, memref<5376x5376xf32>
      vector.transfer_write %cst, %alloc_5[%61, %31] {in_bounds = [true]} : vector<8xf32>, memref<5376x5376xf32>
      vector.transfer_write %cst, %alloc_5[%62, %31] {in_bounds = [true]} : vector<8xf32>, memref<5376x5376xf32>
      vector.transfer_write %cst, %alloc_5[%63, %31] {in_bounds = [true]} : vector<8xf32>, memref<5376x5376xf32>
      vector.transfer_write %cst, %alloc_5[%64, %31] {in_bounds = [true]} : vector<8xf32>, memref<5376x5376xf32>
      vector.transfer_write %cst, %alloc_5[%65, %31] {in_bounds = [true]} : vector<8xf32>, memref<5376x5376xf32>
      vector.transfer_write %cst, %alloc_5[%66, %31] {in_bounds = [true]} : vector<8xf32>, memref<5376x5376xf32>
      vector.transfer_write %cst, %alloc_5[%67, %31] {in_bounds = [true]} : vector<8xf32>, memref<5376x5376xf32>
      vector.transfer_write %cst, %alloc_5[%52, %32] {in_bounds = [true]} : vector<8xf32>, memref<5376x5376xf32>
      vector.transfer_write %cst, %alloc_5[%53, %32] {in_bounds = [true]} : vector<8xf32>, memref<5376x5376xf32>
      vector.transfer_write %cst, %alloc_5[%54, %32] {in_bounds = [true]} : vector<8xf32>, memref<5376x5376xf32>
      vector.transfer_write %cst, %alloc_5[%55, %32] {in_bounds = [true]} : vector<8xf32>, memref<5376x5376xf32>
      vector.transfer_write %cst, %alloc_5[%56, %32] {in_bounds = [true]} : vector<8xf32>, memref<5376x5376xf32>
      vector.transfer_write %cst, %alloc_5[%57, %32] {in_bounds = [true]} : vector<8xf32>, memref<5376x5376xf32>
      vector.transfer_write %cst, %alloc_5[%58, %32] {in_bounds = [true]} : vector<8xf32>, memref<5376x5376xf32>
      vector.transfer_write %cst, %alloc_5[%59, %32] {in_bounds = [true]} : vector<8xf32>, memref<5376x5376xf32>
      vector.transfer_write %cst, %alloc_5[%60, %32] {in_bounds = [true]} : vector<8xf32>, memref<5376x5376xf32>
      vector.transfer_write %cst, %alloc_5[%61, %32] {in_bounds = [true]} : vector<8xf32>, memref<5376x5376xf32>
      vector.transfer_write %cst, %alloc_5[%62, %32] {in_bounds = [true]} : vector<8xf32>, memref<5376x5376xf32>
      vector.transfer_write %cst, %alloc_5[%63, %32] {in_bounds = [true]} : vector<8xf32>, memref<5376x5376xf32>
      vector.transfer_write %cst, %alloc_5[%64, %32] {in_bounds = [true]} : vector<8xf32>, memref<5376x5376xf32>
      vector.transfer_write %cst, %alloc_5[%65, %32] {in_bounds = [true]} : vector<8xf32>, memref<5376x5376xf32>
      vector.transfer_write %cst, %alloc_5[%66, %32] {in_bounds = [true]} : vector<8xf32>, memref<5376x5376xf32>
      vector.transfer_write %cst, %alloc_5[%67, %32] {in_bounds = [true]} : vector<8xf32>, memref<5376x5376xf32>
      vector.transfer_write %cst, %alloc_5[%52, %33] {in_bounds = [true]} : vector<8xf32>, memref<5376x5376xf32>
      vector.transfer_write %cst, %alloc_5[%53, %33] {in_bounds = [true]} : vector<8xf32>, memref<5376x5376xf32>
      vector.transfer_write %cst, %alloc_5[%54, %33] {in_bounds = [true]} : vector<8xf32>, memref<5376x5376xf32>
      vector.transfer_write %cst, %alloc_5[%55, %33] {in_bounds = [true]} : vector<8xf32>, memref<5376x5376xf32>
      vector.transfer_write %cst, %alloc_5[%56, %33] {in_bounds = [true]} : vector<8xf32>, memref<5376x5376xf32>
      vector.transfer_write %cst, %alloc_5[%57, %33] {in_bounds = [true]} : vector<8xf32>, memref<5376x5376xf32>
      vector.transfer_write %cst, %alloc_5[%58, %33] {in_bounds = [true]} : vector<8xf32>, memref<5376x5376xf32>
      vector.transfer_write %cst, %alloc_5[%59, %33] {in_bounds = [true]} : vector<8xf32>, memref<5376x5376xf32>
      vector.transfer_write %cst, %alloc_5[%60, %33] {in_bounds = [true]} : vector<8xf32>, memref<5376x5376xf32>
      vector.transfer_write %cst, %alloc_5[%61, %33] {in_bounds = [true]} : vector<8xf32>, memref<5376x5376xf32>
      vector.transfer_write %cst, %alloc_5[%62, %33] {in_bounds = [true]} : vector<8xf32>, memref<5376x5376xf32>
      vector.transfer_write %cst, %alloc_5[%63, %33] {in_bounds = [true]} : vector<8xf32>, memref<5376x5376xf32>
      vector.transfer_write %cst, %alloc_5[%64, %33] {in_bounds = [true]} : vector<8xf32>, memref<5376x5376xf32>
      vector.transfer_write %cst, %alloc_5[%65, %33] {in_bounds = [true]} : vector<8xf32>, memref<5376x5376xf32>
      vector.transfer_write %cst, %alloc_5[%66, %33] {in_bounds = [true]} : vector<8xf32>, memref<5376x5376xf32>
      vector.transfer_write %cst, %alloc_5[%67, %33] {in_bounds = [true]} : vector<8xf32>, memref<5376x5376xf32>
      vector.transfer_write %cst, %alloc_5[%52, %34] {in_bounds = [true]} : vector<8xf32>, memref<5376x5376xf32>
      vector.transfer_write %cst, %alloc_5[%53, %34] {in_bounds = [true]} : vector<8xf32>, memref<5376x5376xf32>
      vector.transfer_write %cst, %alloc_5[%54, %34] {in_bounds = [true]} : vector<8xf32>, memref<5376x5376xf32>
      vector.transfer_write %cst, %alloc_5[%55, %34] {in_bounds = [true]} : vector<8xf32>, memref<5376x5376xf32>
      vector.transfer_write %cst, %alloc_5[%56, %34] {in_bounds = [true]} : vector<8xf32>, memref<5376x5376xf32>
      vector.transfer_write %cst, %alloc_5[%57, %34] {in_bounds = [true]} : vector<8xf32>, memref<5376x5376xf32>
      vector.transfer_write %cst, %alloc_5[%58, %34] {in_bounds = [true]} : vector<8xf32>, memref<5376x5376xf32>
      vector.transfer_write %cst, %alloc_5[%59, %34] {in_bounds = [true]} : vector<8xf32>, memref<5376x5376xf32>
      vector.transfer_write %cst, %alloc_5[%60, %34] {in_bounds = [true]} : vector<8xf32>, memref<5376x5376xf32>
      vector.transfer_write %cst, %alloc_5[%61, %34] {in_bounds = [true]} : vector<8xf32>, memref<5376x5376xf32>
      vector.transfer_write %cst, %alloc_5[%62, %34] {in_bounds = [true]} : vector<8xf32>, memref<5376x5376xf32>
      vector.transfer_write %cst, %alloc_5[%63, %34] {in_bounds = [true]} : vector<8xf32>, memref<5376x5376xf32>
      vector.transfer_write %cst, %alloc_5[%64, %34] {in_bounds = [true]} : vector<8xf32>, memref<5376x5376xf32>
      vector.transfer_write %cst, %alloc_5[%65, %34] {in_bounds = [true]} : vector<8xf32>, memref<5376x5376xf32>
      vector.transfer_write %cst, %alloc_5[%66, %34] {in_bounds = [true]} : vector<8xf32>, memref<5376x5376xf32>
      vector.transfer_write %cst, %alloc_5[%67, %34] {in_bounds = [true]} : vector<8xf32>, memref<5376x5376xf32>
      vector.transfer_write %cst, %alloc_5[%52, %35] {in_bounds = [true]} : vector<8xf32>, memref<5376x5376xf32>
      vector.transfer_write %cst, %alloc_5[%53, %35] {in_bounds = [true]} : vector<8xf32>, memref<5376x5376xf32>
      vector.transfer_write %cst, %alloc_5[%54, %35] {in_bounds = [true]} : vector<8xf32>, memref<5376x5376xf32>
      vector.transfer_write %cst, %alloc_5[%55, %35] {in_bounds = [true]} : vector<8xf32>, memref<5376x5376xf32>
      vector.transfer_write %cst, %alloc_5[%56, %35] {in_bounds = [true]} : vector<8xf32>, memref<5376x5376xf32>
      vector.transfer_write %cst, %alloc_5[%57, %35] {in_bounds = [true]} : vector<8xf32>, memref<5376x5376xf32>
      vector.transfer_write %cst, %alloc_5[%58, %35] {in_bounds = [true]} : vector<8xf32>, memref<5376x5376xf32>
      vector.transfer_write %cst, %alloc_5[%59, %35] {in_bounds = [true]} : vector<8xf32>, memref<5376x5376xf32>
      vector.transfer_write %cst, %alloc_5[%60, %35] {in_bounds = [true]} : vector<8xf32>, memref<5376x5376xf32>
      vector.transfer_write %cst, %alloc_5[%61, %35] {in_bounds = [true]} : vector<8xf32>, memref<5376x5376xf32>
      vector.transfer_write %cst, %alloc_5[%62, %35] {in_bounds = [true]} : vector<8xf32>, memref<5376x5376xf32>
      vector.transfer_write %cst, %alloc_5[%63, %35] {in_bounds = [true]} : vector<8xf32>, memref<5376x5376xf32>
      vector.transfer_write %cst, %alloc_5[%64, %35] {in_bounds = [true]} : vector<8xf32>, memref<5376x5376xf32>
      vector.transfer_write %cst, %alloc_5[%65, %35] {in_bounds = [true]} : vector<8xf32>, memref<5376x5376xf32>
      vector.transfer_write %cst, %alloc_5[%66, %35] {in_bounds = [true]} : vector<8xf32>, memref<5376x5376xf32>
      vector.transfer_write %cst, %alloc_5[%67, %35] {in_bounds = [true]} : vector<8xf32>, memref<5376x5376xf32>
      %68 = affine.apply #map64(%1, %3)
      vector.transfer_write %cst, %alloc_5[%68, %4] {in_bounds = [true]} : vector<8xf32>, memref<5376x5376xf32>
      %69 = affine.apply #map65(%1, %3)
      vector.transfer_write %cst, %alloc_5[%69, %4] {in_bounds = [true]} : vector<8xf32>, memref<5376x5376xf32>
      %70 = affine.apply #map66(%1, %3)
      vector.transfer_write %cst, %alloc_5[%70, %4] {in_bounds = [true]} : vector<8xf32>, memref<5376x5376xf32>
      %71 = affine.apply #map67(%1, %3)
      vector.transfer_write %cst, %alloc_5[%71, %4] {in_bounds = [true]} : vector<8xf32>, memref<5376x5376xf32>
      %72 = affine.apply #map68(%1, %3)
      vector.transfer_write %cst, %alloc_5[%72, %4] {in_bounds = [true]} : vector<8xf32>, memref<5376x5376xf32>
      %73 = affine.apply #map69(%1, %3)
      vector.transfer_write %cst, %alloc_5[%73, %4] {in_bounds = [true]} : vector<8xf32>, memref<5376x5376xf32>
      %74 = affine.apply #map70(%1, %3)
      vector.transfer_write %cst, %alloc_5[%74, %4] {in_bounds = [true]} : vector<8xf32>, memref<5376x5376xf32>
      %75 = affine.apply #map71(%1, %3)
      vector.transfer_write %cst, %alloc_5[%75, %4] {in_bounds = [true]} : vector<8xf32>, memref<5376x5376xf32>
      %76 = affine.apply #map72(%1, %3)
      vector.transfer_write %cst, %alloc_5[%76, %4] {in_bounds = [true]} : vector<8xf32>, memref<5376x5376xf32>
      %77 = affine.apply #map73(%1, %3)
      vector.transfer_write %cst, %alloc_5[%77, %4] {in_bounds = [true]} : vector<8xf32>, memref<5376x5376xf32>
      %78 = affine.apply #map74(%1, %3)
      vector.transfer_write %cst, %alloc_5[%78, %4] {in_bounds = [true]} : vector<8xf32>, memref<5376x5376xf32>
      %79 = affine.apply #map75(%1, %3)
      vector.transfer_write %cst, %alloc_5[%79, %4] {in_bounds = [true]} : vector<8xf32>, memref<5376x5376xf32>
      %80 = affine.apply #map76(%1, %3)
      vector.transfer_write %cst, %alloc_5[%80, %4] {in_bounds = [true]} : vector<8xf32>, memref<5376x5376xf32>
      %81 = affine.apply #map77(%1, %3)
      vector.transfer_write %cst, %alloc_5[%81, %4] {in_bounds = [true]} : vector<8xf32>, memref<5376x5376xf32>
      %82 = affine.apply #map78(%1, %3)
      vector.transfer_write %cst, %alloc_5[%82, %4] {in_bounds = [true]} : vector<8xf32>, memref<5376x5376xf32>
      %83 = affine.apply #map79(%1, %3)
      vector.transfer_write %cst, %alloc_5[%83, %4] {in_bounds = [true]} : vector<8xf32>, memref<5376x5376xf32>
      vector.transfer_write %cst, %alloc_5[%68, %21] {in_bounds = [true]} : vector<8xf32>, memref<5376x5376xf32>
      vector.transfer_write %cst, %alloc_5[%69, %21] {in_bounds = [true]} : vector<8xf32>, memref<5376x5376xf32>
      vector.transfer_write %cst, %alloc_5[%70, %21] {in_bounds = [true]} : vector<8xf32>, memref<5376x5376xf32>
      vector.transfer_write %cst, %alloc_5[%71, %21] {in_bounds = [true]} : vector<8xf32>, memref<5376x5376xf32>
      vector.transfer_write %cst, %alloc_5[%72, %21] {in_bounds = [true]} : vector<8xf32>, memref<5376x5376xf32>
      vector.transfer_write %cst, %alloc_5[%73, %21] {in_bounds = [true]} : vector<8xf32>, memref<5376x5376xf32>
      vector.transfer_write %cst, %alloc_5[%74, %21] {in_bounds = [true]} : vector<8xf32>, memref<5376x5376xf32>
      vector.transfer_write %cst, %alloc_5[%75, %21] {in_bounds = [true]} : vector<8xf32>, memref<5376x5376xf32>
      vector.transfer_write %cst, %alloc_5[%76, %21] {in_bounds = [true]} : vector<8xf32>, memref<5376x5376xf32>
      vector.transfer_write %cst, %alloc_5[%77, %21] {in_bounds = [true]} : vector<8xf32>, memref<5376x5376xf32>
      vector.transfer_write %cst, %alloc_5[%78, %21] {in_bounds = [true]} : vector<8xf32>, memref<5376x5376xf32>
      vector.transfer_write %cst, %alloc_5[%79, %21] {in_bounds = [true]} : vector<8xf32>, memref<5376x5376xf32>
      vector.transfer_write %cst, %alloc_5[%80, %21] {in_bounds = [true]} : vector<8xf32>, memref<5376x5376xf32>
      vector.transfer_write %cst, %alloc_5[%81, %21] {in_bounds = [true]} : vector<8xf32>, memref<5376x5376xf32>
      vector.transfer_write %cst, %alloc_5[%82, %21] {in_bounds = [true]} : vector<8xf32>, memref<5376x5376xf32>
      vector.transfer_write %cst, %alloc_5[%83, %21] {in_bounds = [true]} : vector<8xf32>, memref<5376x5376xf32>
      vector.transfer_write %cst, %alloc_5[%68, %22] {in_bounds = [true]} : vector<8xf32>, memref<5376x5376xf32>
      vector.transfer_write %cst, %alloc_5[%69, %22] {in_bounds = [true]} : vector<8xf32>, memref<5376x5376xf32>
      vector.transfer_write %cst, %alloc_5[%70, %22] {in_bounds = [true]} : vector<8xf32>, memref<5376x5376xf32>
      vector.transfer_write %cst, %alloc_5[%71, %22] {in_bounds = [true]} : vector<8xf32>, memref<5376x5376xf32>
      vector.transfer_write %cst, %alloc_5[%72, %22] {in_bounds = [true]} : vector<8xf32>, memref<5376x5376xf32>
      vector.transfer_write %cst, %alloc_5[%73, %22] {in_bounds = [true]} : vector<8xf32>, memref<5376x5376xf32>
      vector.transfer_write %cst, %alloc_5[%74, %22] {in_bounds = [true]} : vector<8xf32>, memref<5376x5376xf32>
      vector.transfer_write %cst, %alloc_5[%75, %22] {in_bounds = [true]} : vector<8xf32>, memref<5376x5376xf32>
      vector.transfer_write %cst, %alloc_5[%76, %22] {in_bounds = [true]} : vector<8xf32>, memref<5376x5376xf32>
      vector.transfer_write %cst, %alloc_5[%77, %22] {in_bounds = [true]} : vector<8xf32>, memref<5376x5376xf32>
      vector.transfer_write %cst, %alloc_5[%78, %22] {in_bounds = [true]} : vector<8xf32>, memref<5376x5376xf32>
      vector.transfer_write %cst, %alloc_5[%79, %22] {in_bounds = [true]} : vector<8xf32>, memref<5376x5376xf32>
      vector.transfer_write %cst, %alloc_5[%80, %22] {in_bounds = [true]} : vector<8xf32>, memref<5376x5376xf32>
      vector.transfer_write %cst, %alloc_5[%81, %22] {in_bounds = [true]} : vector<8xf32>, memref<5376x5376xf32>
      vector.transfer_write %cst, %alloc_5[%82, %22] {in_bounds = [true]} : vector<8xf32>, memref<5376x5376xf32>
      vector.transfer_write %cst, %alloc_5[%83, %22] {in_bounds = [true]} : vector<8xf32>, memref<5376x5376xf32>
      vector.transfer_write %cst, %alloc_5[%68, %23] {in_bounds = [true]} : vector<8xf32>, memref<5376x5376xf32>
      vector.transfer_write %cst, %alloc_5[%69, %23] {in_bounds = [true]} : vector<8xf32>, memref<5376x5376xf32>
      vector.transfer_write %cst, %alloc_5[%70, %23] {in_bounds = [true]} : vector<8xf32>, memref<5376x5376xf32>
      vector.transfer_write %cst, %alloc_5[%71, %23] {in_bounds = [true]} : vector<8xf32>, memref<5376x5376xf32>
      vector.transfer_write %cst, %alloc_5[%72, %23] {in_bounds = [true]} : vector<8xf32>, memref<5376x5376xf32>
      vector.transfer_write %cst, %alloc_5[%73, %23] {in_bounds = [true]} : vector<8xf32>, memref<5376x5376xf32>
      vector.transfer_write %cst, %alloc_5[%74, %23] {in_bounds = [true]} : vector<8xf32>, memref<5376x5376xf32>
      vector.transfer_write %cst, %alloc_5[%75, %23] {in_bounds = [true]} : vector<8xf32>, memref<5376x5376xf32>
      vector.transfer_write %cst, %alloc_5[%76, %23] {in_bounds = [true]} : vector<8xf32>, memref<5376x5376xf32>
      vector.transfer_write %cst, %alloc_5[%77, %23] {in_bounds = [true]} : vector<8xf32>, memref<5376x5376xf32>
      vector.transfer_write %cst, %alloc_5[%78, %23] {in_bounds = [true]} : vector<8xf32>, memref<5376x5376xf32>
      vector.transfer_write %cst, %alloc_5[%79, %23] {in_bounds = [true]} : vector<8xf32>, memref<5376x5376xf32>
      vector.transfer_write %cst, %alloc_5[%80, %23] {in_bounds = [true]} : vector<8xf32>, memref<5376x5376xf32>
      vector.transfer_write %cst, %alloc_5[%81, %23] {in_bounds = [true]} : vector<8xf32>, memref<5376x5376xf32>
      vector.transfer_write %cst, %alloc_5[%82, %23] {in_bounds = [true]} : vector<8xf32>, memref<5376x5376xf32>
      vector.transfer_write %cst, %alloc_5[%83, %23] {in_bounds = [true]} : vector<8xf32>, memref<5376x5376xf32>
      vector.transfer_write %cst, %alloc_5[%68, %24] {in_bounds = [true]} : vector<8xf32>, memref<5376x5376xf32>
      vector.transfer_write %cst, %alloc_5[%69, %24] {in_bounds = [true]} : vector<8xf32>, memref<5376x5376xf32>
      vector.transfer_write %cst, %alloc_5[%70, %24] {in_bounds = [true]} : vector<8xf32>, memref<5376x5376xf32>
      vector.transfer_write %cst, %alloc_5[%71, %24] {in_bounds = [true]} : vector<8xf32>, memref<5376x5376xf32>
      vector.transfer_write %cst, %alloc_5[%72, %24] {in_bounds = [true]} : vector<8xf32>, memref<5376x5376xf32>
      vector.transfer_write %cst, %alloc_5[%73, %24] {in_bounds = [true]} : vector<8xf32>, memref<5376x5376xf32>
      vector.transfer_write %cst, %alloc_5[%74, %24] {in_bounds = [true]} : vector<8xf32>, memref<5376x5376xf32>
      vector.transfer_write %cst, %alloc_5[%75, %24] {in_bounds = [true]} : vector<8xf32>, memref<5376x5376xf32>
      vector.transfer_write %cst, %alloc_5[%76, %24] {in_bounds = [true]} : vector<8xf32>, memref<5376x5376xf32>
      vector.transfer_write %cst, %alloc_5[%77, %24] {in_bounds = [true]} : vector<8xf32>, memref<5376x5376xf32>
      vector.transfer_write %cst, %alloc_5[%78, %24] {in_bounds = [true]} : vector<8xf32>, memref<5376x5376xf32>
      vector.transfer_write %cst, %alloc_5[%79, %24] {in_bounds = [true]} : vector<8xf32>, memref<5376x5376xf32>
      vector.transfer_write %cst, %alloc_5[%80, %24] {in_bounds = [true]} : vector<8xf32>, memref<5376x5376xf32>
      vector.transfer_write %cst, %alloc_5[%81, %24] {in_bounds = [true]} : vector<8xf32>, memref<5376x5376xf32>
      vector.transfer_write %cst, %alloc_5[%82, %24] {in_bounds = [true]} : vector<8xf32>, memref<5376x5376xf32>
      vector.transfer_write %cst, %alloc_5[%83, %24] {in_bounds = [true]} : vector<8xf32>, memref<5376x5376xf32>
      vector.transfer_write %cst, %alloc_5[%68, %25] {in_bounds = [true]} : vector<8xf32>, memref<5376x5376xf32>
      vector.transfer_write %cst, %alloc_5[%69, %25] {in_bounds = [true]} : vector<8xf32>, memref<5376x5376xf32>
      vector.transfer_write %cst, %alloc_5[%70, %25] {in_bounds = [true]} : vector<8xf32>, memref<5376x5376xf32>
      vector.transfer_write %cst, %alloc_5[%71, %25] {in_bounds = [true]} : vector<8xf32>, memref<5376x5376xf32>
      vector.transfer_write %cst, %alloc_5[%72, %25] {in_bounds = [true]} : vector<8xf32>, memref<5376x5376xf32>
      vector.transfer_write %cst, %alloc_5[%73, %25] {in_bounds = [true]} : vector<8xf32>, memref<5376x5376xf32>
      vector.transfer_write %cst, %alloc_5[%74, %25] {in_bounds = [true]} : vector<8xf32>, memref<5376x5376xf32>
      vector.transfer_write %cst, %alloc_5[%75, %25] {in_bounds = [true]} : vector<8xf32>, memref<5376x5376xf32>
      vector.transfer_write %cst, %alloc_5[%76, %25] {in_bounds = [true]} : vector<8xf32>, memref<5376x5376xf32>
      vector.transfer_write %cst, %alloc_5[%77, %25] {in_bounds = [true]} : vector<8xf32>, memref<5376x5376xf32>
      vector.transfer_write %cst, %alloc_5[%78, %25] {in_bounds = [true]} : vector<8xf32>, memref<5376x5376xf32>
      vector.transfer_write %cst, %alloc_5[%79, %25] {in_bounds = [true]} : vector<8xf32>, memref<5376x5376xf32>
      vector.transfer_write %cst, %alloc_5[%80, %25] {in_bounds = [true]} : vector<8xf32>, memref<5376x5376xf32>
      vector.transfer_write %cst, %alloc_5[%81, %25] {in_bounds = [true]} : vector<8xf32>, memref<5376x5376xf32>
      vector.transfer_write %cst, %alloc_5[%82, %25] {in_bounds = [true]} : vector<8xf32>, memref<5376x5376xf32>
      vector.transfer_write %cst, %alloc_5[%83, %25] {in_bounds = [true]} : vector<8xf32>, memref<5376x5376xf32>
      vector.transfer_write %cst, %alloc_5[%68, %26] {in_bounds = [true]} : vector<8xf32>, memref<5376x5376xf32>
      vector.transfer_write %cst, %alloc_5[%69, %26] {in_bounds = [true]} : vector<8xf32>, memref<5376x5376xf32>
      vector.transfer_write %cst, %alloc_5[%70, %26] {in_bounds = [true]} : vector<8xf32>, memref<5376x5376xf32>
      vector.transfer_write %cst, %alloc_5[%71, %26] {in_bounds = [true]} : vector<8xf32>, memref<5376x5376xf32>
      vector.transfer_write %cst, %alloc_5[%72, %26] {in_bounds = [true]} : vector<8xf32>, memref<5376x5376xf32>
      vector.transfer_write %cst, %alloc_5[%73, %26] {in_bounds = [true]} : vector<8xf32>, memref<5376x5376xf32>
      vector.transfer_write %cst, %alloc_5[%74, %26] {in_bounds = [true]} : vector<8xf32>, memref<5376x5376xf32>
      vector.transfer_write %cst, %alloc_5[%75, %26] {in_bounds = [true]} : vector<8xf32>, memref<5376x5376xf32>
      vector.transfer_write %cst, %alloc_5[%76, %26] {in_bounds = [true]} : vector<8xf32>, memref<5376x5376xf32>
      vector.transfer_write %cst, %alloc_5[%77, %26] {in_bounds = [true]} : vector<8xf32>, memref<5376x5376xf32>
      vector.transfer_write %cst, %alloc_5[%78, %26] {in_bounds = [true]} : vector<8xf32>, memref<5376x5376xf32>
      vector.transfer_write %cst, %alloc_5[%79, %26] {in_bounds = [true]} : vector<8xf32>, memref<5376x5376xf32>
      vector.transfer_write %cst, %alloc_5[%80, %26] {in_bounds = [true]} : vector<8xf32>, memref<5376x5376xf32>
      vector.transfer_write %cst, %alloc_5[%81, %26] {in_bounds = [true]} : vector<8xf32>, memref<5376x5376xf32>
      vector.transfer_write %cst, %alloc_5[%82, %26] {in_bounds = [true]} : vector<8xf32>, memref<5376x5376xf32>
      vector.transfer_write %cst, %alloc_5[%83, %26] {in_bounds = [true]} : vector<8xf32>, memref<5376x5376xf32>
      vector.transfer_write %cst, %alloc_5[%68, %27] {in_bounds = [true]} : vector<8xf32>, memref<5376x5376xf32>
      vector.transfer_write %cst, %alloc_5[%69, %27] {in_bounds = [true]} : vector<8xf32>, memref<5376x5376xf32>
      vector.transfer_write %cst, %alloc_5[%70, %27] {in_bounds = [true]} : vector<8xf32>, memref<5376x5376xf32>
      vector.transfer_write %cst, %alloc_5[%71, %27] {in_bounds = [true]} : vector<8xf32>, memref<5376x5376xf32>
      vector.transfer_write %cst, %alloc_5[%72, %27] {in_bounds = [true]} : vector<8xf32>, memref<5376x5376xf32>
      vector.transfer_write %cst, %alloc_5[%73, %27] {in_bounds = [true]} : vector<8xf32>, memref<5376x5376xf32>
      vector.transfer_write %cst, %alloc_5[%74, %27] {in_bounds = [true]} : vector<8xf32>, memref<5376x5376xf32>
      vector.transfer_write %cst, %alloc_5[%75, %27] {in_bounds = [true]} : vector<8xf32>, memref<5376x5376xf32>
      vector.transfer_write %cst, %alloc_5[%76, %27] {in_bounds = [true]} : vector<8xf32>, memref<5376x5376xf32>
      vector.transfer_write %cst, %alloc_5[%77, %27] {in_bounds = [true]} : vector<8xf32>, memref<5376x5376xf32>
      vector.transfer_write %cst, %alloc_5[%78, %27] {in_bounds = [true]} : vector<8xf32>, memref<5376x5376xf32>
      vector.transfer_write %cst, %alloc_5[%79, %27] {in_bounds = [true]} : vector<8xf32>, memref<5376x5376xf32>
      vector.transfer_write %cst, %alloc_5[%80, %27] {in_bounds = [true]} : vector<8xf32>, memref<5376x5376xf32>
      vector.transfer_write %cst, %alloc_5[%81, %27] {in_bounds = [true]} : vector<8xf32>, memref<5376x5376xf32>
      vector.transfer_write %cst, %alloc_5[%82, %27] {in_bounds = [true]} : vector<8xf32>, memref<5376x5376xf32>
      vector.transfer_write %cst, %alloc_5[%83, %27] {in_bounds = [true]} : vector<8xf32>, memref<5376x5376xf32>
      vector.transfer_write %cst, %alloc_5[%68, %28] {in_bounds = [true]} : vector<8xf32>, memref<5376x5376xf32>
      vector.transfer_write %cst, %alloc_5[%69, %28] {in_bounds = [true]} : vector<8xf32>, memref<5376x5376xf32>
      vector.transfer_write %cst, %alloc_5[%70, %28] {in_bounds = [true]} : vector<8xf32>, memref<5376x5376xf32>
      vector.transfer_write %cst, %alloc_5[%71, %28] {in_bounds = [true]} : vector<8xf32>, memref<5376x5376xf32>
      vector.transfer_write %cst, %alloc_5[%72, %28] {in_bounds = [true]} : vector<8xf32>, memref<5376x5376xf32>
      vector.transfer_write %cst, %alloc_5[%73, %28] {in_bounds = [true]} : vector<8xf32>, memref<5376x5376xf32>
      vector.transfer_write %cst, %alloc_5[%74, %28] {in_bounds = [true]} : vector<8xf32>, memref<5376x5376xf32>
      vector.transfer_write %cst, %alloc_5[%75, %28] {in_bounds = [true]} : vector<8xf32>, memref<5376x5376xf32>
      vector.transfer_write %cst, %alloc_5[%76, %28] {in_bounds = [true]} : vector<8xf32>, memref<5376x5376xf32>
      vector.transfer_write %cst, %alloc_5[%77, %28] {in_bounds = [true]} : vector<8xf32>, memref<5376x5376xf32>
      vector.transfer_write %cst, %alloc_5[%78, %28] {in_bounds = [true]} : vector<8xf32>, memref<5376x5376xf32>
      vector.transfer_write %cst, %alloc_5[%79, %28] {in_bounds = [true]} : vector<8xf32>, memref<5376x5376xf32>
      vector.transfer_write %cst, %alloc_5[%80, %28] {in_bounds = [true]} : vector<8xf32>, memref<5376x5376xf32>
      vector.transfer_write %cst, %alloc_5[%81, %28] {in_bounds = [true]} : vector<8xf32>, memref<5376x5376xf32>
      vector.transfer_write %cst, %alloc_5[%82, %28] {in_bounds = [true]} : vector<8xf32>, memref<5376x5376xf32>
      vector.transfer_write %cst, %alloc_5[%83, %28] {in_bounds = [true]} : vector<8xf32>, memref<5376x5376xf32>
      vector.transfer_write %cst, %alloc_5[%68, %29] {in_bounds = [true]} : vector<8xf32>, memref<5376x5376xf32>
      vector.transfer_write %cst, %alloc_5[%69, %29] {in_bounds = [true]} : vector<8xf32>, memref<5376x5376xf32>
      vector.transfer_write %cst, %alloc_5[%70, %29] {in_bounds = [true]} : vector<8xf32>, memref<5376x5376xf32>
      vector.transfer_write %cst, %alloc_5[%71, %29] {in_bounds = [true]} : vector<8xf32>, memref<5376x5376xf32>
      vector.transfer_write %cst, %alloc_5[%72, %29] {in_bounds = [true]} : vector<8xf32>, memref<5376x5376xf32>
      vector.transfer_write %cst, %alloc_5[%73, %29] {in_bounds = [true]} : vector<8xf32>, memref<5376x5376xf32>
      vector.transfer_write %cst, %alloc_5[%74, %29] {in_bounds = [true]} : vector<8xf32>, memref<5376x5376xf32>
      vector.transfer_write %cst, %alloc_5[%75, %29] {in_bounds = [true]} : vector<8xf32>, memref<5376x5376xf32>
      vector.transfer_write %cst, %alloc_5[%76, %29] {in_bounds = [true]} : vector<8xf32>, memref<5376x5376xf32>
      vector.transfer_write %cst, %alloc_5[%77, %29] {in_bounds = [true]} : vector<8xf32>, memref<5376x5376xf32>
      vector.transfer_write %cst, %alloc_5[%78, %29] {in_bounds = [true]} : vector<8xf32>, memref<5376x5376xf32>
      vector.transfer_write %cst, %alloc_5[%79, %29] {in_bounds = [true]} : vector<8xf32>, memref<5376x5376xf32>
      vector.transfer_write %cst, %alloc_5[%80, %29] {in_bounds = [true]} : vector<8xf32>, memref<5376x5376xf32>
      vector.transfer_write %cst, %alloc_5[%81, %29] {in_bounds = [true]} : vector<8xf32>, memref<5376x5376xf32>
      vector.transfer_write %cst, %alloc_5[%82, %29] {in_bounds = [true]} : vector<8xf32>, memref<5376x5376xf32>
      vector.transfer_write %cst, %alloc_5[%83, %29] {in_bounds = [true]} : vector<8xf32>, memref<5376x5376xf32>
      vector.transfer_write %cst, %alloc_5[%68, %30] {in_bounds = [true]} : vector<8xf32>, memref<5376x5376xf32>
      vector.transfer_write %cst, %alloc_5[%69, %30] {in_bounds = [true]} : vector<8xf32>, memref<5376x5376xf32>
      vector.transfer_write %cst, %alloc_5[%70, %30] {in_bounds = [true]} : vector<8xf32>, memref<5376x5376xf32>
      vector.transfer_write %cst, %alloc_5[%71, %30] {in_bounds = [true]} : vector<8xf32>, memref<5376x5376xf32>
      vector.transfer_write %cst, %alloc_5[%72, %30] {in_bounds = [true]} : vector<8xf32>, memref<5376x5376xf32>
      vector.transfer_write %cst, %alloc_5[%73, %30] {in_bounds = [true]} : vector<8xf32>, memref<5376x5376xf32>
      vector.transfer_write %cst, %alloc_5[%74, %30] {in_bounds = [true]} : vector<8xf32>, memref<5376x5376xf32>
      vector.transfer_write %cst, %alloc_5[%75, %30] {in_bounds = [true]} : vector<8xf32>, memref<5376x5376xf32>
      vector.transfer_write %cst, %alloc_5[%76, %30] {in_bounds = [true]} : vector<8xf32>, memref<5376x5376xf32>
      vector.transfer_write %cst, %alloc_5[%77, %30] {in_bounds = [true]} : vector<8xf32>, memref<5376x5376xf32>
      vector.transfer_write %cst, %alloc_5[%78, %30] {in_bounds = [true]} : vector<8xf32>, memref<5376x5376xf32>
      vector.transfer_write %cst, %alloc_5[%79, %30] {in_bounds = [true]} : vector<8xf32>, memref<5376x5376xf32>
      vector.transfer_write %cst, %alloc_5[%80, %30] {in_bounds = [true]} : vector<8xf32>, memref<5376x5376xf32>
      vector.transfer_write %cst, %alloc_5[%81, %30] {in_bounds = [true]} : vector<8xf32>, memref<5376x5376xf32>
      vector.transfer_write %cst, %alloc_5[%82, %30] {in_bounds = [true]} : vector<8xf32>, memref<5376x5376xf32>
      vector.transfer_write %cst, %alloc_5[%83, %30] {in_bounds = [true]} : vector<8xf32>, memref<5376x5376xf32>
      vector.transfer_write %cst, %alloc_5[%68, %31] {in_bounds = [true]} : vector<8xf32>, memref<5376x5376xf32>
      vector.transfer_write %cst, %alloc_5[%69, %31] {in_bounds = [true]} : vector<8xf32>, memref<5376x5376xf32>
      vector.transfer_write %cst, %alloc_5[%70, %31] {in_bounds = [true]} : vector<8xf32>, memref<5376x5376xf32>
      vector.transfer_write %cst, %alloc_5[%71, %31] {in_bounds = [true]} : vector<8xf32>, memref<5376x5376xf32>
      vector.transfer_write %cst, %alloc_5[%72, %31] {in_bounds = [true]} : vector<8xf32>, memref<5376x5376xf32>
      vector.transfer_write %cst, %alloc_5[%73, %31] {in_bounds = [true]} : vector<8xf32>, memref<5376x5376xf32>
      vector.transfer_write %cst, %alloc_5[%74, %31] {in_bounds = [true]} : vector<8xf32>, memref<5376x5376xf32>
      vector.transfer_write %cst, %alloc_5[%75, %31] {in_bounds = [true]} : vector<8xf32>, memref<5376x5376xf32>
      vector.transfer_write %cst, %alloc_5[%76, %31] {in_bounds = [true]} : vector<8xf32>, memref<5376x5376xf32>
      vector.transfer_write %cst, %alloc_5[%77, %31] {in_bounds = [true]} : vector<8xf32>, memref<5376x5376xf32>
      vector.transfer_write %cst, %alloc_5[%78, %31] {in_bounds = [true]} : vector<8xf32>, memref<5376x5376xf32>
      vector.transfer_write %cst, %alloc_5[%79, %31] {in_bounds = [true]} : vector<8xf32>, memref<5376x5376xf32>
      vector.transfer_write %cst, %alloc_5[%80, %31] {in_bounds = [true]} : vector<8xf32>, memref<5376x5376xf32>
      vector.transfer_write %cst, %alloc_5[%81, %31] {in_bounds = [true]} : vector<8xf32>, memref<5376x5376xf32>
      vector.transfer_write %cst, %alloc_5[%82, %31] {in_bounds = [true]} : vector<8xf32>, memref<5376x5376xf32>
      vector.transfer_write %cst, %alloc_5[%83, %31] {in_bounds = [true]} : vector<8xf32>, memref<5376x5376xf32>
      vector.transfer_write %cst, %alloc_5[%68, %32] {in_bounds = [true]} : vector<8xf32>, memref<5376x5376xf32>
      vector.transfer_write %cst, %alloc_5[%69, %32] {in_bounds = [true]} : vector<8xf32>, memref<5376x5376xf32>
      vector.transfer_write %cst, %alloc_5[%70, %32] {in_bounds = [true]} : vector<8xf32>, memref<5376x5376xf32>
      vector.transfer_write %cst, %alloc_5[%71, %32] {in_bounds = [true]} : vector<8xf32>, memref<5376x5376xf32>
      vector.transfer_write %cst, %alloc_5[%72, %32] {in_bounds = [true]} : vector<8xf32>, memref<5376x5376xf32>
      vector.transfer_write %cst, %alloc_5[%73, %32] {in_bounds = [true]} : vector<8xf32>, memref<5376x5376xf32>
      vector.transfer_write %cst, %alloc_5[%74, %32] {in_bounds = [true]} : vector<8xf32>, memref<5376x5376xf32>
      vector.transfer_write %cst, %alloc_5[%75, %32] {in_bounds = [true]} : vector<8xf32>, memref<5376x5376xf32>
      vector.transfer_write %cst, %alloc_5[%76, %32] {in_bounds = [true]} : vector<8xf32>, memref<5376x5376xf32>
      vector.transfer_write %cst, %alloc_5[%77, %32] {in_bounds = [true]} : vector<8xf32>, memref<5376x5376xf32>
      vector.transfer_write %cst, %alloc_5[%78, %32] {in_bounds = [true]} : vector<8xf32>, memref<5376x5376xf32>
      vector.transfer_write %cst, %alloc_5[%79, %32] {in_bounds = [true]} : vector<8xf32>, memref<5376x5376xf32>
      vector.transfer_write %cst, %alloc_5[%80, %32] {in_bounds = [true]} : vector<8xf32>, memref<5376x5376xf32>
      vector.transfer_write %cst, %alloc_5[%81, %32] {in_bounds = [true]} : vector<8xf32>, memref<5376x5376xf32>
      vector.transfer_write %cst, %alloc_5[%82, %32] {in_bounds = [true]} : vector<8xf32>, memref<5376x5376xf32>
      vector.transfer_write %cst, %alloc_5[%83, %32] {in_bounds = [true]} : vector<8xf32>, memref<5376x5376xf32>
      vector.transfer_write %cst, %alloc_5[%68, %33] {in_bounds = [true]} : vector<8xf32>, memref<5376x5376xf32>
      vector.transfer_write %cst, %alloc_5[%69, %33] {in_bounds = [true]} : vector<8xf32>, memref<5376x5376xf32>
      vector.transfer_write %cst, %alloc_5[%70, %33] {in_bounds = [true]} : vector<8xf32>, memref<5376x5376xf32>
      vector.transfer_write %cst, %alloc_5[%71, %33] {in_bounds = [true]} : vector<8xf32>, memref<5376x5376xf32>
      vector.transfer_write %cst, %alloc_5[%72, %33] {in_bounds = [true]} : vector<8xf32>, memref<5376x5376xf32>
      vector.transfer_write %cst, %alloc_5[%73, %33] {in_bounds = [true]} : vector<8xf32>, memref<5376x5376xf32>
      vector.transfer_write %cst, %alloc_5[%74, %33] {in_bounds = [true]} : vector<8xf32>, memref<5376x5376xf32>
      vector.transfer_write %cst, %alloc_5[%75, %33] {in_bounds = [true]} : vector<8xf32>, memref<5376x5376xf32>
      vector.transfer_write %cst, %alloc_5[%76, %33] {in_bounds = [true]} : vector<8xf32>, memref<5376x5376xf32>
      vector.transfer_write %cst, %alloc_5[%77, %33] {in_bounds = [true]} : vector<8xf32>, memref<5376x5376xf32>
      vector.transfer_write %cst, %alloc_5[%78, %33] {in_bounds = [true]} : vector<8xf32>, memref<5376x5376xf32>
      vector.transfer_write %cst, %alloc_5[%79, %33] {in_bounds = [true]} : vector<8xf32>, memref<5376x5376xf32>
      vector.transfer_write %cst, %alloc_5[%80, %33] {in_bounds = [true]} : vector<8xf32>, memref<5376x5376xf32>
      vector.transfer_write %cst, %alloc_5[%81, %33] {in_bounds = [true]} : vector<8xf32>, memref<5376x5376xf32>
      vector.transfer_write %cst, %alloc_5[%82, %33] {in_bounds = [true]} : vector<8xf32>, memref<5376x5376xf32>
      vector.transfer_write %cst, %alloc_5[%83, %33] {in_bounds = [true]} : vector<8xf32>, memref<5376x5376xf32>
      vector.transfer_write %cst, %alloc_5[%68, %34] {in_bounds = [true]} : vector<8xf32>, memref<5376x5376xf32>
      vector.transfer_write %cst, %alloc_5[%69, %34] {in_bounds = [true]} : vector<8xf32>, memref<5376x5376xf32>
      vector.transfer_write %cst, %alloc_5[%70, %34] {in_bounds = [true]} : vector<8xf32>, memref<5376x5376xf32>
      vector.transfer_write %cst, %alloc_5[%71, %34] {in_bounds = [true]} : vector<8xf32>, memref<5376x5376xf32>
      vector.transfer_write %cst, %alloc_5[%72, %34] {in_bounds = [true]} : vector<8xf32>, memref<5376x5376xf32>
      vector.transfer_write %cst, %alloc_5[%73, %34] {in_bounds = [true]} : vector<8xf32>, memref<5376x5376xf32>
      vector.transfer_write %cst, %alloc_5[%74, %34] {in_bounds = [true]} : vector<8xf32>, memref<5376x5376xf32>
      vector.transfer_write %cst, %alloc_5[%75, %34] {in_bounds = [true]} : vector<8xf32>, memref<5376x5376xf32>
      vector.transfer_write %cst, %alloc_5[%76, %34] {in_bounds = [true]} : vector<8xf32>, memref<5376x5376xf32>
      vector.transfer_write %cst, %alloc_5[%77, %34] {in_bounds = [true]} : vector<8xf32>, memref<5376x5376xf32>
      vector.transfer_write %cst, %alloc_5[%78, %34] {in_bounds = [true]} : vector<8xf32>, memref<5376x5376xf32>
      vector.transfer_write %cst, %alloc_5[%79, %34] {in_bounds = [true]} : vector<8xf32>, memref<5376x5376xf32>
      vector.transfer_write %cst, %alloc_5[%80, %34] {in_bounds = [true]} : vector<8xf32>, memref<5376x5376xf32>
      vector.transfer_write %cst, %alloc_5[%81, %34] {in_bounds = [true]} : vector<8xf32>, memref<5376x5376xf32>
      vector.transfer_write %cst, %alloc_5[%82, %34] {in_bounds = [true]} : vector<8xf32>, memref<5376x5376xf32>
      vector.transfer_write %cst, %alloc_5[%83, %34] {in_bounds = [true]} : vector<8xf32>, memref<5376x5376xf32>
      vector.transfer_write %cst, %alloc_5[%68, %35] {in_bounds = [true]} : vector<8xf32>, memref<5376x5376xf32>
      vector.transfer_write %cst, %alloc_5[%69, %35] {in_bounds = [true]} : vector<8xf32>, memref<5376x5376xf32>
      vector.transfer_write %cst, %alloc_5[%70, %35] {in_bounds = [true]} : vector<8xf32>, memref<5376x5376xf32>
      vector.transfer_write %cst, %alloc_5[%71, %35] {in_bounds = [true]} : vector<8xf32>, memref<5376x5376xf32>
      vector.transfer_write %cst, %alloc_5[%72, %35] {in_bounds = [true]} : vector<8xf32>, memref<5376x5376xf32>
      vector.transfer_write %cst, %alloc_5[%73, %35] {in_bounds = [true]} : vector<8xf32>, memref<5376x5376xf32>
      vector.transfer_write %cst, %alloc_5[%74, %35] {in_bounds = [true]} : vector<8xf32>, memref<5376x5376xf32>
      vector.transfer_write %cst, %alloc_5[%75, %35] {in_bounds = [true]} : vector<8xf32>, memref<5376x5376xf32>
      vector.transfer_write %cst, %alloc_5[%76, %35] {in_bounds = [true]} : vector<8xf32>, memref<5376x5376xf32>
      vector.transfer_write %cst, %alloc_5[%77, %35] {in_bounds = [true]} : vector<8xf32>, memref<5376x5376xf32>
      vector.transfer_write %cst, %alloc_5[%78, %35] {in_bounds = [true]} : vector<8xf32>, memref<5376x5376xf32>
      vector.transfer_write %cst, %alloc_5[%79, %35] {in_bounds = [true]} : vector<8xf32>, memref<5376x5376xf32>
      vector.transfer_write %cst, %alloc_5[%80, %35] {in_bounds = [true]} : vector<8xf32>, memref<5376x5376xf32>
      vector.transfer_write %cst, %alloc_5[%81, %35] {in_bounds = [true]} : vector<8xf32>, memref<5376x5376xf32>
      vector.transfer_write %cst, %alloc_5[%82, %35] {in_bounds = [true]} : vector<8xf32>, memref<5376x5376xf32>
      vector.transfer_write %cst, %alloc_5[%83, %35] {in_bounds = [true]} : vector<8xf32>, memref<5376x5376xf32>
      gpu.barrier
      %84 = affine.apply #map80(%2)
      %85 = affine.apply #map81(%0, %2)
      %86 = affine.apply #map82(%2)
      %87 = gpu.lane_id
      %88 = affine.apply #map83(%87, %1, %3)
      %89 = affine.apply #map84(%87, %0, %2)
      %90 = vector.load %alloc_5[%88, %89] : memref<5376x5376xf32>, vector<2xf32>
      %91 = vector.insert %90, %cst_0 [0] : vector<2xf32> into vector<2x2xf32>
      %92 = affine.apply #map85(%87, %1, %3)
      %93 = vector.load %alloc_5[%92, %89] : memref<5376x5376xf32>, vector<2xf32>
      %94 = vector.insert %93, %91 [1] : vector<2xf32> into vector<2x2xf32>
      %95 = affine.apply #map86(%87, %0, %2)
      %96 = vector.load %alloc_5[%88, %95] : memref<5376x5376xf32>, vector<2xf32>
      %97 = vector.insert %96, %cst_0 [0] : vector<2xf32> into vector<2x2xf32>
      %98 = vector.load %alloc_5[%92, %95] : memref<5376x5376xf32>, vector<2xf32>
      %99 = vector.insert %98, %97 [1] : vector<2xf32> into vector<2x2xf32>
      %100 = affine.apply #map87(%87, %0, %2)
      %101 = vector.load %alloc_5[%88, %100] : memref<5376x5376xf32>, vector<2xf32>
      %102 = vector.insert %101, %cst_0 [0] : vector<2xf32> into vector<2x2xf32>
      %103 = vector.load %alloc_5[%92, %100] : memref<5376x5376xf32>, vector<2xf32>
      %104 = vector.insert %103, %102 [1] : vector<2xf32> into vector<2x2xf32>
      %105 = affine.apply #map88(%87, %0, %2)
      %106 = vector.load %alloc_5[%88, %105] : memref<5376x5376xf32>, vector<2xf32>
      %107 = vector.insert %106, %cst_0 [0] : vector<2xf32> into vector<2x2xf32>
      %108 = vector.load %alloc_5[%92, %105] : memref<5376x5376xf32>, vector<2xf32>
      %109 = vector.insert %108, %107 [1] : vector<2xf32> into vector<2x2xf32>
      %110 = affine.apply #map89(%87, %0, %2)
      %111 = vector.load %alloc_5[%88, %110] : memref<5376x5376xf32>, vector<2xf32>
      %112 = vector.insert %111, %cst_0 [0] : vector<2xf32> into vector<2x2xf32>
      %113 = vector.load %alloc_5[%92, %110] : memref<5376x5376xf32>, vector<2xf32>
      %114 = vector.insert %113, %112 [1] : vector<2xf32> into vector<2x2xf32>
      %115 = affine.apply #map90(%87, %0, %2)
      %116 = vector.load %alloc_5[%88, %115] : memref<5376x5376xf32>, vector<2xf32>
      %117 = vector.insert %116, %cst_0 [0] : vector<2xf32> into vector<2x2xf32>
      %118 = vector.load %alloc_5[%92, %115] : memref<5376x5376xf32>, vector<2xf32>
      %119 = vector.insert %118, %117 [1] : vector<2xf32> into vector<2x2xf32>
      %120 = affine.apply #map91(%87, %0, %2)
      %121 = vector.load %alloc_5[%88, %120] : memref<5376x5376xf32>, vector<2xf32>
      %122 = vector.insert %121, %cst_0 [0] : vector<2xf32> into vector<2x2xf32>
      %123 = vector.load %alloc_5[%92, %120] : memref<5376x5376xf32>, vector<2xf32>
      %124 = vector.insert %123, %122 [1] : vector<2xf32> into vector<2x2xf32>
      %125 = affine.apply #map92(%87, %0, %2)
      %126 = vector.load %alloc_5[%88, %125] : memref<5376x5376xf32>, vector<2xf32>
      %127 = vector.insert %126, %cst_0 [0] : vector<2xf32> into vector<2x2xf32>
      %128 = vector.load %alloc_5[%92, %125] : memref<5376x5376xf32>, vector<2xf32>
      %129 = vector.insert %128, %127 [1] : vector<2xf32> into vector<2x2xf32>
      %130 = affine.apply #map93(%87, %0, %2)
      %131 = vector.load %alloc_5[%88, %130] : memref<5376x5376xf32>, vector<2xf32>
      %132 = vector.insert %131, %cst_0 [0] : vector<2xf32> into vector<2x2xf32>
      %133 = vector.load %alloc_5[%92, %130] : memref<5376x5376xf32>, vector<2xf32>
      %134 = vector.insert %133, %132 [1] : vector<2xf32> into vector<2x2xf32>
      %135 = affine.apply #map94(%87, %0, %2)
      %136 = vector.load %alloc_5[%88, %135] : memref<5376x5376xf32>, vector<2xf32>
      %137 = vector.insert %136, %cst_0 [0] : vector<2xf32> into vector<2x2xf32>
      %138 = vector.load %alloc_5[%92, %135] : memref<5376x5376xf32>, vector<2xf32>
      %139 = vector.insert %138, %137 [1] : vector<2xf32> into vector<2x2xf32>
      %140 = affine.apply #map95(%87, %0, %2)
      %141 = vector.load %alloc_5[%88, %140] : memref<5376x5376xf32>, vector<2xf32>
      %142 = vector.insert %141, %cst_0 [0] : vector<2xf32> into vector<2x2xf32>
      %143 = vector.load %alloc_5[%92, %140] : memref<5376x5376xf32>, vector<2xf32>
      %144 = vector.insert %143, %142 [1] : vector<2xf32> into vector<2x2xf32>
      %145 = affine.apply #map96(%87, %0, %2)
      %146 = vector.load %alloc_5[%88, %145] : memref<5376x5376xf32>, vector<2xf32>
      %147 = vector.insert %146, %cst_0 [0] : vector<2xf32> into vector<2x2xf32>
      %148 = vector.load %alloc_5[%92, %145] : memref<5376x5376xf32>, vector<2xf32>
      %149 = vector.insert %148, %147 [1] : vector<2xf32> into vector<2x2xf32>
      %150 = affine.apply #map97(%87, %0, %2)
      %151 = vector.load %alloc_5[%88, %150] : memref<5376x5376xf32>, vector<2xf32>
      %152 = vector.insert %151, %cst_0 [0] : vector<2xf32> into vector<2x2xf32>
      %153 = vector.load %alloc_5[%92, %150] : memref<5376x5376xf32>, vector<2xf32>
      %154 = vector.insert %153, %152 [1] : vector<2xf32> into vector<2x2xf32>
      %155 = affine.apply #map98(%87, %0, %2)
      %156 = vector.load %alloc_5[%88, %155] : memref<5376x5376xf32>, vector<2xf32>
      %157 = vector.insert %156, %cst_0 [0] : vector<2xf32> into vector<2x2xf32>
      %158 = vector.load %alloc_5[%92, %155] : memref<5376x5376xf32>, vector<2xf32>
      %159 = vector.insert %158, %157 [1] : vector<2xf32> into vector<2x2xf32>
      %160 = affine.apply #map99(%87, %0, %2)
      %161 = vector.load %alloc_5[%88, %160] : memref<5376x5376xf32>, vector<2xf32>
      %162 = vector.insert %161, %cst_0 [0] : vector<2xf32> into vector<2x2xf32>
      %163 = vector.load %alloc_5[%92, %160] : memref<5376x5376xf32>, vector<2xf32>
      %164 = vector.insert %163, %162 [1] : vector<2xf32> into vector<2x2xf32>
      %165 = affine.apply #map100(%87, %0, %2)
      %166 = vector.load %alloc_5[%88, %165] : memref<5376x5376xf32>, vector<2xf32>
      %167 = vector.insert %166, %cst_0 [0] : vector<2xf32> into vector<2x2xf32>
      %168 = vector.load %alloc_5[%92, %165] : memref<5376x5376xf32>, vector<2xf32>
      %169 = vector.insert %168, %167 [1] : vector<2xf32> into vector<2x2xf32>
      %170 = affine.apply #map101(%87, %1, %3)
      %171 = vector.load %alloc_5[%170, %89] : memref<5376x5376xf32>, vector<2xf32>
      %172 = vector.insert %171, %cst_0 [0] : vector<2xf32> into vector<2x2xf32>
      %173 = affine.apply #map102(%87, %1, %3)
      %174 = vector.load %alloc_5[%173, %89] : memref<5376x5376xf32>, vector<2xf32>
      %175 = vector.insert %174, %172 [1] : vector<2xf32> into vector<2x2xf32>
      %176 = vector.load %alloc_5[%170, %95] : memref<5376x5376xf32>, vector<2xf32>
      %177 = vector.insert %176, %cst_0 [0] : vector<2xf32> into vector<2x2xf32>
      %178 = vector.load %alloc_5[%173, %95] : memref<5376x5376xf32>, vector<2xf32>
      %179 = vector.insert %178, %177 [1] : vector<2xf32> into vector<2x2xf32>
      %180 = vector.load %alloc_5[%170, %100] : memref<5376x5376xf32>, vector<2xf32>
      %181 = vector.insert %180, %cst_0 [0] : vector<2xf32> into vector<2x2xf32>
      %182 = vector.load %alloc_5[%173, %100] : memref<5376x5376xf32>, vector<2xf32>
      %183 = vector.insert %182, %181 [1] : vector<2xf32> into vector<2x2xf32>
      %184 = vector.load %alloc_5[%170, %105] : memref<5376x5376xf32>, vector<2xf32>
      %185 = vector.insert %184, %cst_0 [0] : vector<2xf32> into vector<2x2xf32>
      %186 = vector.load %alloc_5[%173, %105] : memref<5376x5376xf32>, vector<2xf32>
      %187 = vector.insert %186, %185 [1] : vector<2xf32> into vector<2x2xf32>
      %188 = vector.load %alloc_5[%170, %110] : memref<5376x5376xf32>, vector<2xf32>
      %189 = vector.insert %188, %cst_0 [0] : vector<2xf32> into vector<2x2xf32>
      %190 = vector.load %alloc_5[%173, %110] : memref<5376x5376xf32>, vector<2xf32>
      %191 = vector.insert %190, %189 [1] : vector<2xf32> into vector<2x2xf32>
      %192 = vector.load %alloc_5[%170, %115] : memref<5376x5376xf32>, vector<2xf32>
      %193 = vector.insert %192, %cst_0 [0] : vector<2xf32> into vector<2x2xf32>
      %194 = vector.load %alloc_5[%173, %115] : memref<5376x5376xf32>, vector<2xf32>
      %195 = vector.insert %194, %193 [1] : vector<2xf32> into vector<2x2xf32>
      %196 = vector.load %alloc_5[%170, %120] : memref<5376x5376xf32>, vector<2xf32>
      %197 = vector.insert %196, %cst_0 [0] : vector<2xf32> into vector<2x2xf32>
      %198 = vector.load %alloc_5[%173, %120] : memref<5376x5376xf32>, vector<2xf32>
      %199 = vector.insert %198, %197 [1] : vector<2xf32> into vector<2x2xf32>
      %200 = vector.load %alloc_5[%170, %125] : memref<5376x5376xf32>, vector<2xf32>
      %201 = vector.insert %200, %cst_0 [0] : vector<2xf32> into vector<2x2xf32>
      %202 = vector.load %alloc_5[%173, %125] : memref<5376x5376xf32>, vector<2xf32>
      %203 = vector.insert %202, %201 [1] : vector<2xf32> into vector<2x2xf32>
      %204 = vector.load %alloc_5[%170, %130] : memref<5376x5376xf32>, vector<2xf32>
      %205 = vector.insert %204, %cst_0 [0] : vector<2xf32> into vector<2x2xf32>
      %206 = vector.load %alloc_5[%173, %130] : memref<5376x5376xf32>, vector<2xf32>
      %207 = vector.insert %206, %205 [1] : vector<2xf32> into vector<2x2xf32>
      %208 = vector.load %alloc_5[%170, %135] : memref<5376x5376xf32>, vector<2xf32>
      %209 = vector.insert %208, %cst_0 [0] : vector<2xf32> into vector<2x2xf32>
      %210 = vector.load %alloc_5[%173, %135] : memref<5376x5376xf32>, vector<2xf32>
      %211 = vector.insert %210, %209 [1] : vector<2xf32> into vector<2x2xf32>
      %212 = vector.load %alloc_5[%170, %140] : memref<5376x5376xf32>, vector<2xf32>
      %213 = vector.insert %212, %cst_0 [0] : vector<2xf32> into vector<2x2xf32>
      %214 = vector.load %alloc_5[%173, %140] : memref<5376x5376xf32>, vector<2xf32>
      %215 = vector.insert %214, %213 [1] : vector<2xf32> into vector<2x2xf32>
      %216 = vector.load %alloc_5[%170, %145] : memref<5376x5376xf32>, vector<2xf32>
      %217 = vector.insert %216, %cst_0 [0] : vector<2xf32> into vector<2x2xf32>
      %218 = vector.load %alloc_5[%173, %145] : memref<5376x5376xf32>, vector<2xf32>
      %219 = vector.insert %218, %217 [1] : vector<2xf32> into vector<2x2xf32>
      %220 = vector.load %alloc_5[%170, %150] : memref<5376x5376xf32>, vector<2xf32>
      %221 = vector.insert %220, %cst_0 [0] : vector<2xf32> into vector<2x2xf32>
      %222 = vector.load %alloc_5[%173, %150] : memref<5376x5376xf32>, vector<2xf32>
      %223 = vector.insert %222, %221 [1] : vector<2xf32> into vector<2x2xf32>
      %224 = vector.load %alloc_5[%170, %155] : memref<5376x5376xf32>, vector<2xf32>
      %225 = vector.insert %224, %cst_0 [0] : vector<2xf32> into vector<2x2xf32>
      %226 = vector.load %alloc_5[%173, %155] : memref<5376x5376xf32>, vector<2xf32>
      %227 = vector.insert %226, %225 [1] : vector<2xf32> into vector<2x2xf32>
      %228 = vector.load %alloc_5[%170, %160] : memref<5376x5376xf32>, vector<2xf32>
      %229 = vector.insert %228, %cst_0 [0] : vector<2xf32> into vector<2x2xf32>
      %230 = vector.load %alloc_5[%173, %160] : memref<5376x5376xf32>, vector<2xf32>
      %231 = vector.insert %230, %229 [1] : vector<2xf32> into vector<2x2xf32>
      %232 = vector.load %alloc_5[%170, %165] : memref<5376x5376xf32>, vector<2xf32>
      %233 = vector.insert %232, %cst_0 [0] : vector<2xf32> into vector<2x2xf32>
      %234 = vector.load %alloc_5[%173, %165] : memref<5376x5376xf32>, vector<2xf32>
      %235 = vector.insert %234, %233 [1] : vector<2xf32> into vector<2x2xf32>
      %236 = affine.apply #map103(%87, %1, %3)
      %237 = vector.load %alloc_5[%236, %89] : memref<5376x5376xf32>, vector<2xf32>
      %238 = vector.insert %237, %cst_0 [0] : vector<2xf32> into vector<2x2xf32>
      %239 = affine.apply #map104(%87, %1, %3)
      %240 = vector.load %alloc_5[%239, %89] : memref<5376x5376xf32>, vector<2xf32>
      %241 = vector.insert %240, %238 [1] : vector<2xf32> into vector<2x2xf32>
      %242 = vector.load %alloc_5[%236, %95] : memref<5376x5376xf32>, vector<2xf32>
      %243 = vector.insert %242, %cst_0 [0] : vector<2xf32> into vector<2x2xf32>
      %244 = vector.load %alloc_5[%239, %95] : memref<5376x5376xf32>, vector<2xf32>
      %245 = vector.insert %244, %243 [1] : vector<2xf32> into vector<2x2xf32>
      %246 = vector.load %alloc_5[%236, %100] : memref<5376x5376xf32>, vector<2xf32>
      %247 = vector.insert %246, %cst_0 [0] : vector<2xf32> into vector<2x2xf32>
      %248 = vector.load %alloc_5[%239, %100] : memref<5376x5376xf32>, vector<2xf32>
      %249 = vector.insert %248, %247 [1] : vector<2xf32> into vector<2x2xf32>
      %250 = vector.load %alloc_5[%236, %105] : memref<5376x5376xf32>, vector<2xf32>
      %251 = vector.insert %250, %cst_0 [0] : vector<2xf32> into vector<2x2xf32>
      %252 = vector.load %alloc_5[%239, %105] : memref<5376x5376xf32>, vector<2xf32>
      %253 = vector.insert %252, %251 [1] : vector<2xf32> into vector<2x2xf32>
      %254 = vector.load %alloc_5[%236, %110] : memref<5376x5376xf32>, vector<2xf32>
      %255 = vector.insert %254, %cst_0 [0] : vector<2xf32> into vector<2x2xf32>
      %256 = vector.load %alloc_5[%239, %110] : memref<5376x5376xf32>, vector<2xf32>
      %257 = vector.insert %256, %255 [1] : vector<2xf32> into vector<2x2xf32>
      %258 = vector.load %alloc_5[%236, %115] : memref<5376x5376xf32>, vector<2xf32>
      %259 = vector.insert %258, %cst_0 [0] : vector<2xf32> into vector<2x2xf32>
      %260 = vector.load %alloc_5[%239, %115] : memref<5376x5376xf32>, vector<2xf32>
      %261 = vector.insert %260, %259 [1] : vector<2xf32> into vector<2x2xf32>
      %262 = vector.load %alloc_5[%236, %120] : memref<5376x5376xf32>, vector<2xf32>
      %263 = vector.insert %262, %cst_0 [0] : vector<2xf32> into vector<2x2xf32>
      %264 = vector.load %alloc_5[%239, %120] : memref<5376x5376xf32>, vector<2xf32>
      %265 = vector.insert %264, %263 [1] : vector<2xf32> into vector<2x2xf32>
      %266 = vector.load %alloc_5[%236, %125] : memref<5376x5376xf32>, vector<2xf32>
      %267 = vector.insert %266, %cst_0 [0] : vector<2xf32> into vector<2x2xf32>
      %268 = vector.load %alloc_5[%239, %125] : memref<5376x5376xf32>, vector<2xf32>
      %269 = vector.insert %268, %267 [1] : vector<2xf32> into vector<2x2xf32>
      %270 = vector.load %alloc_5[%236, %130] : memref<5376x5376xf32>, vector<2xf32>
      %271 = vector.insert %270, %cst_0 [0] : vector<2xf32> into vector<2x2xf32>
      %272 = vector.load %alloc_5[%239, %130] : memref<5376x5376xf32>, vector<2xf32>
      %273 = vector.insert %272, %271 [1] : vector<2xf32> into vector<2x2xf32>
      %274 = vector.load %alloc_5[%236, %135] : memref<5376x5376xf32>, vector<2xf32>
      %275 = vector.insert %274, %cst_0 [0] : vector<2xf32> into vector<2x2xf32>
      %276 = vector.load %alloc_5[%239, %135] : memref<5376x5376xf32>, vector<2xf32>
      %277 = vector.insert %276, %275 [1] : vector<2xf32> into vector<2x2xf32>
      %278 = vector.load %alloc_5[%236, %140] : memref<5376x5376xf32>, vector<2xf32>
      %279 = vector.insert %278, %cst_0 [0] : vector<2xf32> into vector<2x2xf32>
      %280 = vector.load %alloc_5[%239, %140] : memref<5376x5376xf32>, vector<2xf32>
      %281 = vector.insert %280, %279 [1] : vector<2xf32> into vector<2x2xf32>
      %282 = vector.load %alloc_5[%236, %145] : memref<5376x5376xf32>, vector<2xf32>
      %283 = vector.insert %282, %cst_0 [0] : vector<2xf32> into vector<2x2xf32>
      %284 = vector.load %alloc_5[%239, %145] : memref<5376x5376xf32>, vector<2xf32>
      %285 = vector.insert %284, %283 [1] : vector<2xf32> into vector<2x2xf32>
      %286 = vector.load %alloc_5[%236, %150] : memref<5376x5376xf32>, vector<2xf32>
      %287 = vector.insert %286, %cst_0 [0] : vector<2xf32> into vector<2x2xf32>
      %288 = vector.load %alloc_5[%239, %150] : memref<5376x5376xf32>, vector<2xf32>
      %289 = vector.insert %288, %287 [1] : vector<2xf32> into vector<2x2xf32>
      %290 = vector.load %alloc_5[%236, %155] : memref<5376x5376xf32>, vector<2xf32>
      %291 = vector.insert %290, %cst_0 [0] : vector<2xf32> into vector<2x2xf32>
      %292 = vector.load %alloc_5[%239, %155] : memref<5376x5376xf32>, vector<2xf32>
      %293 = vector.insert %292, %291 [1] : vector<2xf32> into vector<2x2xf32>
      %294 = vector.load %alloc_5[%236, %160] : memref<5376x5376xf32>, vector<2xf32>
      %295 = vector.insert %294, %cst_0 [0] : vector<2xf32> into vector<2x2xf32>
      %296 = vector.load %alloc_5[%239, %160] : memref<5376x5376xf32>, vector<2xf32>
      %297 = vector.insert %296, %295 [1] : vector<2xf32> into vector<2x2xf32>
      %298 = vector.load %alloc_5[%236, %165] : memref<5376x5376xf32>, vector<2xf32>
      %299 = vector.insert %298, %cst_0 [0] : vector<2xf32> into vector<2x2xf32>
      %300 = vector.load %alloc_5[%239, %165] : memref<5376x5376xf32>, vector<2xf32>
      %301 = vector.insert %300, %299 [1] : vector<2xf32> into vector<2x2xf32>
      %302 = affine.apply #map105(%87, %1, %3)
      %303 = vector.load %alloc_5[%302, %89] : memref<5376x5376xf32>, vector<2xf32>
      %304 = vector.insert %303, %cst_0 [0] : vector<2xf32> into vector<2x2xf32>
      %305 = affine.apply #map106(%87, %1, %3)
      %306 = vector.load %alloc_5[%305, %89] : memref<5376x5376xf32>, vector<2xf32>
      %307 = vector.insert %306, %304 [1] : vector<2xf32> into vector<2x2xf32>
      %308 = vector.load %alloc_5[%302, %95] : memref<5376x5376xf32>, vector<2xf32>
      %309 = vector.insert %308, %cst_0 [0] : vector<2xf32> into vector<2x2xf32>
      %310 = vector.load %alloc_5[%305, %95] : memref<5376x5376xf32>, vector<2xf32>
      %311 = vector.insert %310, %309 [1] : vector<2xf32> into vector<2x2xf32>
      %312 = vector.load %alloc_5[%302, %100] : memref<5376x5376xf32>, vector<2xf32>
      %313 = vector.insert %312, %cst_0 [0] : vector<2xf32> into vector<2x2xf32>
      %314 = vector.load %alloc_5[%305, %100] : memref<5376x5376xf32>, vector<2xf32>
      %315 = vector.insert %314, %313 [1] : vector<2xf32> into vector<2x2xf32>
      %316 = vector.load %alloc_5[%302, %105] : memref<5376x5376xf32>, vector<2xf32>
      %317 = vector.insert %316, %cst_0 [0] : vector<2xf32> into vector<2x2xf32>
      %318 = vector.load %alloc_5[%305, %105] : memref<5376x5376xf32>, vector<2xf32>
      %319 = vector.insert %318, %317 [1] : vector<2xf32> into vector<2x2xf32>
      %320 = vector.load %alloc_5[%302, %110] : memref<5376x5376xf32>, vector<2xf32>
      %321 = vector.insert %320, %cst_0 [0] : vector<2xf32> into vector<2x2xf32>
      %322 = vector.load %alloc_5[%305, %110] : memref<5376x5376xf32>, vector<2xf32>
      %323 = vector.insert %322, %321 [1] : vector<2xf32> into vector<2x2xf32>
      %324 = vector.load %alloc_5[%302, %115] : memref<5376x5376xf32>, vector<2xf32>
      %325 = vector.insert %324, %cst_0 [0] : vector<2xf32> into vector<2x2xf32>
      %326 = vector.load %alloc_5[%305, %115] : memref<5376x5376xf32>, vector<2xf32>
      %327 = vector.insert %326, %325 [1] : vector<2xf32> into vector<2x2xf32>
      %328 = vector.load %alloc_5[%302, %120] : memref<5376x5376xf32>, vector<2xf32>
      %329 = vector.insert %328, %cst_0 [0] : vector<2xf32> into vector<2x2xf32>
      %330 = vector.load %alloc_5[%305, %120] : memref<5376x5376xf32>, vector<2xf32>
      %331 = vector.insert %330, %329 [1] : vector<2xf32> into vector<2x2xf32>
      %332 = vector.load %alloc_5[%302, %125] : memref<5376x5376xf32>, vector<2xf32>
      %333 = vector.insert %332, %cst_0 [0] : vector<2xf32> into vector<2x2xf32>
      %334 = vector.load %alloc_5[%305, %125] : memref<5376x5376xf32>, vector<2xf32>
…
        %629 = vector.insert %628, %cst_2 [0, 0] : f32 into vector<2x1xf32>
        %630 = memref.load %alloc[%371, %384] : memref<16x256xf32, 3>
        %631 = vector.insert %630, %629 [1, 0] : f32 into vector<2x1xf32>
        %632 = nvgpu.mma.sync(%551, %631, %arg19) {mmaShape = [16, 8, 8], tf32Enabled} : (vector<4x1xf32>, vector<2x1xf32>, vector<2x2xf32>) -> vector<2x2xf32>
        %633 = memref.load %alloc[%369, %385] : memref<16x256xf32, 3>
        %634 = vector.insert %633, %cst_2 [0, 0] : f32 into vector<2x1xf32>
        %635 = memref.load %alloc[%371, %385] : memref<16x256xf32, 3>
        %636 = vector.insert %635, %634 [1, 0] : f32 into vector<2x1xf32>
        %637 = nvgpu.mma.sync(%551, %636, %arg20) {mmaShape = [16, 8, 8], tf32Enabled} : (vector<4x1xf32>, vector<2x1xf32>, vector<2x2xf32>) -> vector<2x2xf32>
        %638 = memref.load %alloc[%369, %386] : memref<16x256xf32, 3>
        %639 = vector.insert %638, %cst_2 [0, 0] : f32 into vector<2x1xf32>
        %640 = memref.load %alloc[%371, %386] : memref<16x256xf32, 3>
        %641 = vector.insert %640, %639 [1, 0] : f32 into vector<2x1xf32>
        %642 = nvgpu.mma.sync(%551, %641, %arg21) {mmaShape = [16, 8, 8], tf32Enabled} : (vector<4x1xf32>, vector<2x1xf32>, vector<2x2xf32>) -> vector<2x2xf32>
        %643 = memref.load %alloc[%369, %387] : memref<16x256xf32, 3>
        %644 = vector.insert %643, %cst_2 [0, 0] : f32 into vector<2x1xf32>
        %645 = memref.load %alloc[%371, %387] : memref<16x256xf32, 3>
        %646 = vector.insert %645, %644 [1, 0] : f32 into vector<2x1xf32>
        %647 = nvgpu.mma.sync(%551, %646, %arg22) {mmaShape = [16, 8, 8], tf32Enabled} : (vector<4x1xf32>, vector<2x1xf32>, vector<2x2xf32>) -> vector<2x2xf32>
        %648 = memref.load %alloc[%369, %388] : memref<16x256xf32, 3>
        %649 = vector.insert %648, %cst_2 [0, 0] : f32 into vector<2x1xf32>
        %650 = memref.load %alloc[%371, %388] : memref<16x256xf32, 3>
        %651 = vector.insert %650, %649 [1, 0] : f32 into vector<2x1xf32>
        %652 = nvgpu.mma.sync(%551, %651, %arg23) {mmaShape = [16, 8, 8], tf32Enabled} : (vector<4x1xf32>, vector<2x1xf32>, vector<2x2xf32>) -> vector<2x2xf32>
        %653 = memref.load %alloc[%369, %389] : memref<16x256xf32, 3>
        %654 = vector.insert %653, %cst_2 [0, 0] : f32 into vector<2x1xf32>
        %655 = memref.load %alloc[%371, %389] : memref<16x256xf32, 3>
        %656 = vector.insert %655, %654 [1, 0] : f32 into vector<2x1xf32>
        %657 = nvgpu.mma.sync(%551, %656, %arg24) {mmaShape = [16, 8, 8], tf32Enabled} : (vector<4x1xf32>, vector<2x1xf32>, vector<2x2xf32>) -> vector<2x2xf32>
        %658 = memref.load %alloc[%369, %390] : memref<16x256xf32, 3>
        %659 = vector.insert %658, %cst_2 [0, 0] : f32 into vector<2x1xf32>
        %660 = memref.load %alloc[%371, %390] : memref<16x256xf32, 3>
        %661 = vector.insert %660, %659 [1, 0] : f32 into vector<2x1xf32>
        %662 = nvgpu.mma.sync(%551, %661, %arg25) {mmaShape = [16, 8, 8], tf32Enabled} : (vector<4x1xf32>, vector<2x1xf32>, vector<2x2xf32>) -> vector<2x2xf32>
        %663 = memref.load %alloc[%369, %391] : memref<16x256xf32, 3>
        %664 = vector.insert %663, %cst_2 [0, 0] : f32 into vector<2x1xf32>
        %665 = memref.load %alloc[%371, %391] : memref<16x256xf32, 3>
        %666 = vector.insert %665, %664 [1, 0] : f32 into vector<2x1xf32>
        %667 = nvgpu.mma.sync(%551, %666, %arg26) {mmaShape = [16, 8, 8], tf32Enabled} : (vector<4x1xf32>, vector<2x1xf32>, vector<2x2xf32>) -> vector<2x2xf32>
        %668 = memref.load %alloc[%369, %392] : memref<16x256xf32, 3>
        %669 = vector.insert %668, %cst_2 [0, 0] : f32 into vector<2x1xf32>
        %670 = memref.load %alloc[%371, %392] : memref<16x256xf32, 3>
        %671 = vector.insert %670, %669 [1, 0] : f32 into vector<2x1xf32>
        %672 = nvgpu.mma.sync(%551, %671, %arg27) {mmaShape = [16, 8, 8], tf32Enabled} : (vector<4x1xf32>, vector<2x1xf32>, vector<2x2xf32>) -> vector<2x2xf32>
        %673 = memref.load %alloc[%369, %393] : memref<16x256xf32, 3>
        %674 = vector.insert %673, %cst_2 [0, 0] : f32 into vector<2x1xf32>
        %675 = memref.load %alloc[%371, %393] : memref<16x256xf32, 3>
        %676 = vector.insert %675, %674 [1, 0] : f32 into vector<2x1xf32>
        %677 = nvgpu.mma.sync(%551, %676, %arg28) {mmaShape = [16, 8, 8], tf32Enabled} : (vector<4x1xf32>, vector<2x1xf32>, vector<2x2xf32>) -> vector<2x2xf32>
        %678 = memref.load %alloc[%369, %394] : memref<16x256xf32, 3>
        %679 = vector.insert %678, %cst_2 [0, 0] : f32 into vector<2x1xf32>
        %680 = memref.load %alloc[%371, %394] : memref<16x256xf32, 3>
        %681 = vector.insert %680, %679 [1, 0] : f32 into vector<2x1xf32>
        %682 = nvgpu.mma.sync(%551, %681, %arg29) {mmaShape = [16, 8, 8], tf32Enabled} : (vector<4x1xf32>, vector<2x1xf32>, vector<2x2xf32>) -> vector<2x2xf32>
        %683 = memref.load %alloc[%369, %395] : memref<16x256xf32, 3>
        %684 = vector.insert %683, %cst_2 [0, 0] : f32 into vector<2x1xf32>
        %685 = memref.load %alloc[%371, %395] : memref<16x256xf32, 3>
        %686 = vector.insert %685, %684 [1, 0] : f32 into vector<2x1xf32>
        %687 = nvgpu.mma.sync(%551, %686, %arg30) {mmaShape = [16, 8, 8], tf32Enabled} : (vector<4x1xf32>, vector<2x1xf32>, vector<2x2xf32>) -> vector<2x2xf32>
        %688 = nvgpu.mma.sync(%567, %611, %arg31) {mmaShape = [16, 8, 8], tf32Enabled} : (vector<4x1xf32>, vector<2x1xf32>, vector<2x2xf32>) -> vector<2x2xf32>
        %689 = nvgpu.mma.sync(%567, %616, %arg32) {mmaShape = [16, 8, 8], tf32Enabled} : (vector<4x1xf32>, vector<2x1xf32>, vector<2x2xf32>) -> vector<2x2xf32>
        %690 = nvgpu.mma.sync(%567, %621, %arg33) {mmaShape = [16, 8, 8], tf32Enabled} : (vector<4x1xf32>, vector<2x1xf32>, vector<2x2xf32>) -> vector<2x2xf32>
        %691 = nvgpu.mma.sync(%567, %626, %arg34) {mmaShape = [16, 8, 8], tf32Enabled} : (vector<4x1xf32>, vector<2x1xf32>, vector<2x2xf32>) -> vector<2x2xf32>
        %692 = nvgpu.mma.sync(%567, %631, %arg35) {mmaShape = [16, 8, 8], tf32Enabled} : (vector<4x1xf32>, vector<2x1xf32>, vector<2x2xf32>) -> vector<2x2xf32>
        %693 = nvgpu.mma.sync(%567, %636, %arg36) {mmaShape = [16, 8, 8], tf32Enabled} : (vector<4x1xf32>, vector<2x1xf32>, vector<2x2xf32>) -> vector<2x2xf32>
        %694 = nvgpu.mma.sync(%567, %641, %arg37) {mmaShape = [16, 8, 8], tf32Enabled} : (vector<4x1xf32>, vector<2x1xf32>, vector<2x2xf32>) -> vector<2x2xf32>
        %695 = nvgpu.mma.sync(%567, %646, %arg38) {mmaShape = [16, 8, 8], tf32Enabled} : (vector<4x1xf32>, vector<2x1xf32>, vector<2x2xf32>) -> vector<2x2xf32>
        %696 = nvgpu.mma.sync(%567, %651, %arg39) {mmaShape = [16, 8, 8], tf32Enabled} : (vector<4x1xf32>, vector<2x1xf32>, vector<2x2xf32>) -> vector<2x2xf32>
        %697 = nvgpu.mma.sync(%567, %656, %arg40) {mmaShape = [16, 8, 8], tf32Enabled} : (vector<4x1xf32>, vector<2x1xf32>, vector<2x2xf32>) -> vector<2x2xf32>
        %698 = nvgpu.mma.sync(%567, %661, %arg41) {mmaShape = [16, 8, 8], tf32Enabled} : (vector<4x1xf32>, vector<2x1xf32>, vector<2x2xf32>) -> vector<2x2xf32>
        %699 = nvgpu.mma.sync(%567, %666, %arg42) {mmaShape = [16, 8, 8], tf32Enabled} : (vector<4x1xf32>, vector<2x1xf32>, vector<2x2xf32>) -> vector<2x2xf32>
        %700 = nvgpu.mma.sync(%567, %671, %arg43) {mmaShape = [16, 8, 8], tf32Enabled} : (vector<4x1xf32>, vector<2x1xf32>, vector<2x2xf32>) -> vector<2x2xf32>
        %701 = nvgpu.mma.sync(%567, %676, %arg44) {mmaShape = [16, 8, 8], tf32Enabled} : (vector<4x1xf32>, vector<2x1xf32>, vector<2x2xf32>) -> vector<2x2xf32>
        %702 = nvgpu.mma.sync(%567, %681, %arg45) {mmaShape = [16, 8, 8], tf32Enabled} : (vector<4x1xf32>, vector<2x1xf32>, vector<2x2xf32>) -> vector<2x2xf32>
        %703 = nvgpu.mma.sync(%567, %686, %arg46) {mmaShape = [16, 8, 8], tf32Enabled} : (vector<4x1xf32>, vector<2x1xf32>, vector<2x2xf32>) -> vector<2x2xf32>
        %704 = nvgpu.mma.sync(%583, %611, %arg47) {mmaShape = [16, 8, 8], tf32Enabled} : (vector<4x1xf32>, vector<2x1xf32>, vector<2x2xf32>) -> vector<2x2xf32>
        %705 = nvgpu.mma.sync(%583, %616, %arg48) {mmaShape = [16, 8, 8], tf32Enabled} : (vector<4x1xf32>, vector<2x1xf32>, vector<2x2xf32>) -> vector<2x2xf32>
        %706 = nvgpu.mma.sync(%583, %621, %arg49) {mmaShape = [16, 8, 8], tf32Enabled} : (vector<4x1xf32>, vector<2x1xf32>, vector<2x2xf32>) -> vector<2x2xf32>
        %707 = nvgpu.mma.sync(%583, %626, %arg50) {mmaShape = [16, 8, 8], tf32Enabled} : (vector<4x1xf32>, vector<2x1xf32>, vector<2x2xf32>) -> vector<2x2xf32>
        %708 = nvgpu.mma.sync(%583, %631, %arg51) {mmaShape = [16, 8, 8], tf32Enabled} : (vector<4x1xf32>, vector<2x1xf32>, vector<2x2xf32>) -> vector<2x2xf32>
        %709 = nvgpu.mma.sync(%583, %636, %arg52) {mmaShape = [16, 8, 8], tf32Enabled} : (vector<4x1xf32>, vector<2x1xf32>, vector<2x2xf32>) -> vector<2x2xf32>
        %710 = nvgpu.mma.sync(%583, %641, %arg53) {mmaShape = [16, 8, 8], tf32Enabled} : (vector<4x1xf32>, vector<2x1xf32>, vector<2x2xf32>) -> vector<2x2xf32>
        %711 = nvgpu.mma.sync(%583, %646, %arg54) {mmaShape = [16, 8, 8], tf32Enabled} : (vector<4x1xf32>, vector<2x1xf32>, vector<2x2xf32>) -> vector<2x2xf32>
        %712 = nvgpu.mma.sync(%583, %651, %arg55) {mmaShape = [16, 8, 8], tf32Enabled} : (vector<4x1xf32>, vector<2x1xf32>, vector<2x2xf32>) -> vector<2x2xf32>
        %713 = nvgpu.mma.sync(%583, %656, %arg56) {mmaShape = [16, 8, 8], tf32Enabled} : (vector<4x1xf32>, vector<2x1xf32>, vector<2x2xf32>) -> vector<2x2xf32>
        %714 = nvgpu.mma.sync(%583, %661, %arg57) {mmaShape = [16, 8, 8], tf32Enabled} : (vector<4x1xf32>, vector<2x1xf32>, vector<2x2xf32>) -> vector<2x2xf32>
        %715 = nvgpu.mma.sync(%583, %666, %arg58) {mmaShape = [16, 8, 8], tf32Enabled} : (vector<4x1xf32>, vector<2x1xf32>, vector<2x2xf32>) -> vector<2x2xf32>
        %716 = nvgpu.mma.sync(%583, %671, %arg59) {mmaShape = [16, 8, 8], tf32Enabled} : (vector<4x1xf32>, vector<2x1xf32>, vector<2x2xf32>) -> vector<2x2xf32>
        %717 = nvgpu.mma.sync(%583, %676, %arg60) {mmaShape = [16, 8, 8], tf32Enabled} : (vector<4x1xf32>, vector<2x1xf32>, vector<2x2xf32>) -> vector<2x2xf32>
        %718 = nvgpu.mma.sync(%583, %681, %arg61) {mmaShape = [16, 8, 8], tf32Enabled} : (vector<4x1xf32>, vector<2x1xf32>, vector<2x2xf32>) -> vector<2x2xf32>
        %719 = nvgpu.mma.sync(%583, %686, %arg62) {mmaShape = [16, 8, 8], tf32Enabled} : (vector<4x1xf32>, vector<2x1xf32>, vector<2x2xf32>) -> vector<2x2xf32>
        %720 = nvgpu.mma.sync(%599, %611, %arg63) {mmaShape = [16, 8, 8], tf32Enabled} : (vector<4x1xf32>, vector<2x1xf32>, vector<2x2xf32>) -> vector<2x2xf32>
        %721 = nvgpu.mma.sync(%599, %616, %arg64) {mmaShape = [16, 8, 8], tf32Enabled} : (vector<4x1xf32>, vector<2x1xf32>, vector<2x2xf32>) -> vector<2x2xf32>
        %722 = nvgpu.mma.sync(%599, %621, %arg65) {mmaShape = [16, 8, 8], tf32Enabled} : (vector<4x1xf32>, vector<2x1xf32>, vector<2x2xf32>) -> vector<2x2xf32>
        %723 = nvgpu.mma.sync(%599, %626, %arg66) {mmaShape = [16, 8, 8], tf32Enabled} : (vector<4x1xf32>, vector<2x1xf32>, vector<2x2xf32>) -> vector<2x2xf32>
        %724 = nvgpu.mma.sync(%599, %631, %arg67) {mmaShape = [16, 8, 8], tf32Enabled} : (vector<4x1xf32>, vector<2x1xf32>, vector<2x2xf32>) -> vector<2x2xf32>
        %725 = nvgpu.mma.sync(%599, %636, %arg68) {mmaShape = [16, 8, 8], tf32Enabled} : (vector<4x1xf32>, vector<2x1xf32>, vector<2x2xf32>) -> vector<2x2xf32>
        %726 = nvgpu.mma.sync(%599, %641, %arg69) {mmaShape = [16, 8, 8], tf32Enabled} : (vector<4x1xf32>, vector<2x1xf32>, vector<2x2xf32>) -> vector<2x2xf32>
        %727 = nvgpu.mma.sync(%599, %646, %arg70) {mmaShape = [16, 8, 8], tf32Enabled} : (vector<4x1xf32>, vector<2x1xf32>, vector<2x2xf32>) -> vector<2x2xf32>
        %728 = nvgpu.mma.sync(%599, %651, %arg71) {mmaShape = [16, 8, 8], tf32Enabled} : (vector<4x1xf32>, vector<2x1xf32>, vector<2x2xf32>) -> vector<2x2xf32>
        %729 = nvgpu.mma.sync(%599, %656, %arg72) {mmaShape = [16, 8, 8], tf32Enabled} : (vector<4x1xf32>, vector<2x1xf32>, vector<2x2xf32>) -> vector<2x2xf32>
        %730 = nvgpu.mma.sync(%599, %661, %arg73) {mmaShape = [16, 8, 8], tf32Enabled} : (vector<4x1xf32>, vector<2x1xf32>, vector<2x2xf32>) -> vector<2x2xf32>
        %731 = nvgpu.mma.sync(%599, %666, %arg74) {mmaShape = [16, 8, 8], tf32Enabled} : (vector<4x1xf32>, vector<2x1xf32>, vector<2x2xf32>) -> vector<2x2xf32>
        %732 = nvgpu.mma.sync(%599, %671, %arg75) {mmaShape = [16, 8, 8], tf32Enabled} : (vector<4x1xf32>, vector<2x1xf32>, vector<2x2xf32>) -> vector<2x2xf32>
        %733 = nvgpu.mma.sync(%599, %676, %arg76) {mmaShape = [16, 8, 8], tf32Enabled} : (vector<4x1xf32>, vector<2x1xf32>, vector<2x2xf32>) -> vector<2x2xf32>
        %734 = nvgpu.mma.sync(%599, %681, %arg77) {mmaShape = [16, 8, 8], tf32Enabled} : (vector<4x1xf32>, vector<2x1xf32>, vector<2x2xf32>) -> vector<2x2xf32>
        %735 = nvgpu.mma.sync(%599, %686, %arg78) {mmaShape = [16, 8, 8], tf32Enabled} : (vector<4x1xf32>, vector<2x1xf32>, vector<2x2xf32>) -> vector<2x2xf32>
        %736 = memref.load %alloc[%372, %380] : memref<16x256xf32, 3>
        %737 = vector.insert %736, %cst_2 [0, 0] : f32 into vector<2x1xf32>
        %738 = memref.load %alloc[%373, %380] : memref<16x256xf32, 3>
        %739 = vector.insert %738, %737 [1, 0] : f32 into vector<2x1xf32>
        %740 = nvgpu.mma.sync(%559, %739, %612) {mmaShape = [16, 8, 8], tf32Enabled} : (vector<4x1xf32>, vector<2x1xf32>, vector<2x2xf32>) -> vector<2x2xf32>
        %741 = memref.load %alloc[%372, %381] : memref<16x256xf32, 3>
        %742 = vector.insert %741, %cst_2 [0, 0] : f32 into vector<2x1xf32>
        %743 = memref.load %alloc[%373, %381] : memref<16x256xf32, 3>
        %744 = vector.insert %743, %742 [1, 0] : f32 into vector<2x1xf32>
        %745 = nvgpu.mma.sync(%559, %744, %617) {mmaShape = [16, 8, 8], tf32Enabled} : (vector<4x1xf32>, vector<2x1xf32>, vector<2x2xf32>) -> vector<2x2xf32>
        %746 = memref.load %alloc[%372, %382] : memref<16x256xf32, 3>
        %747 = vector.insert %746, %cst_2 [0, 0] : f32 into vector<2x1xf32>
        %748 = memref.load %alloc[%373, %382] : memref<16x256xf32, 3>
        %749 = vector.insert %748, %747 [1, 0] : f32 into vector<2x1xf32>
        %750 = nvgpu.mma.sync(%559, %749, %622) {mmaShape = [16, 8, 8], tf32Enabled} : (vector<4x1xf32>, vector<2x1xf32>, vector<2x2xf32>) -> vector<2x2xf32>
        %751 = memref.load %alloc[%372, %383] : memref<16x256xf32, 3>
        %752 = vector.insert %751, %cst_2 [0, 0] : f32 into vector<2x1xf32>
        %753 = memref.load %alloc[%373, %383] : memref<16x256xf32, 3>
        %754 = vector.insert %753, %752 [1, 0] : f32 into vector<2x1xf32>
        %755 = nvgpu.mma.sync(%559, %754, %627) {mmaShape = [16, 8, 8], tf32Enabled} : (vector<4x1xf32>, vector<2x1xf32>, vector<2x2xf32>) -> vector<2x2xf32>
        %756 = memref.load %alloc[%372, %384] : memref<16x256xf32, 3>
        %757 = vector.insert %756, %cst_2 [0, 0] : f32 into vector<2x1xf32>
        %758 = memref.load %alloc[%373, %384] : memref<16x256xf32, 3>
        %759 = vector.insert %758, %757 [1, 0] : f32 into vector<2x1xf32>
        %760 = nvgpu.mma.sync(%559, %759, %632) {mmaShape = [16, 8, 8], tf32Enabled} : (vector<4x1xf32>, vector<2x1xf32>, vector<2x2xf32>) -> vector<2x2xf32>
        %761 = memref.load %alloc[%372, %385] : memref<16x256xf32, 3>
        %762 = vector.insert %761, %cst_2 [0, 0] : f32 into vector<2x1xf32>
        %763 = memref.load %alloc[%373, %385] : memref<16x256xf32, 3>
        %764 = vector.insert %763, %762 [1, 0] : f32 into vector<2x1xf32>
        %765 = nvgpu.mma.sync(%559, %764, %637) {mmaShape = [16, 8, 8], tf32Enabled} : (vector<4x1xf32>, vector<2x1xf32>, vector<2x2xf32>) -> vector<2x2xf32>
        %766 = memref.load %alloc[%372, %386] : memref<16x256xf32, 3>
        %767 = vector.insert %766, %cst_2 [0, 0] : f32 into vector<2x1xf32>
        %768 = memref.load %alloc[%373, %386] : memref<16x256xf32, 3>
        %769 = vector.insert %768, %767 [1, 0] : f32 into vector<2x1xf32>
        %770 = nvgpu.mma.sync(%559, %769, %642) {mmaShape = [16, 8, 8], tf32Enabled} : (vector<4x1xf32>, vector<2x1xf32>, vector<2x2xf32>) -> vector<2x2xf32>
        %771 = memref.load %alloc[%372, %387] : memref<16x256xf32, 3>
        %772 = vector.insert %771, %cst_2 [0, 0] : f32 into vector<2x1xf32>
        %773 = memref.load %alloc[%373, %387] : memref<16x256xf32, 3>
        %774 = vector.insert %773, %772 [1, 0] : f32 into vector<2x1xf32>
        %775 = nvgpu.mma.sync(%559, %774, %647) {mmaShape = [16, 8, 8], tf32Enabled} : (vector<4x1xf32>, vector<2x1xf32>, vector<2x2xf32>) -> vector<2x2xf32>
        %776 = memref.load %alloc[%372, %388] : memref<16x256xf32, 3>
        %777 = vector.insert %776, %cst_2 [0, 0] : f32 into vector<2x1xf32>
        %778 = memref.load %alloc[%373, %388] : memref<16x256xf32, 3>
        %779 = vector.insert %778, %777 [1, 0] : f32 into vector<2x1xf32>
        %780 = nvgpu.mma.sync(%559, %779, %652) {mmaShape = [16, 8, 8], tf32Enabled} : (vector<4x1xf32>, vector<2x1xf32>, vector<2x2xf32>) -> vector<2x2xf32>
        %781 = memref.load %alloc[%372, %389] : memref<16x256xf32, 3>
        %782 = vector.insert %781, %cst_2 [0, 0] : f32 into vector<2x1xf32>
        %783 = memref.load %alloc[%373, %389] : memref<16x256xf32, 3>
        %784 = vector.insert %783, %782 [1, 0] : f32 into vector<2x1xf32>
        %785 = nvgpu.mma.sync(%559, %784, %657) {mmaShape = [16, 8, 8], tf32Enabled} : (vector<4x1xf32>, vector<2x1xf32>, vector<2x2xf32>) -> vector<2x2xf32>
        %786 = memref.load %alloc[%372, %390] : memref<16x256xf32, 3>
        %787 = vector.insert %786, %cst_2 [0, 0] : f32 into vector<2x1xf32>
        %788 = memref.load %alloc[%373, %390] : memref<16x256xf32, 3>
        %789 = vector.insert %788, %787 [1, 0] : f32 into vector<2x1xf32>
        %790 = nvgpu.mma.sync(%559, %789, %662) {mmaShape = [16, 8, 8], tf32Enabled} : (vector<4x1xf32>, vector<2x1xf32>, vector<2x2xf32>) -> vector<2x2xf32>
        %791 = memref.load %alloc[%372, %391] : memref<16x256xf32, 3>
        %792 = vector.insert %791, %cst_2 [0, 0] : f32 into vector<2x1xf32>
        %793 = memref.load %alloc[%373, %391] : memref<16x256xf32, 3>
        %794 = vector.insert %793, %792 [1, 0] : f32 into vector<2x1xf32>
        %795 = nvgpu.mma.sync(%559, %794, %667) {mmaShape = [16, 8, 8], tf32Enabled} : (vector<4x1xf32>, vector<2x1xf32>, vector<2x2xf32>) -> vector<2x2xf32>
        %796 = memref.load %alloc[%372, %392] : memref<16x256xf32, 3>
        %797 = vector.insert %796, %cst_2 [0, 0] : f32 into vector<2x1xf32>
        %798 = memref.load %alloc[%373, %392] : memref<16x256xf32, 3>
        %799 = vector.insert %798, %797 [1, 0] : f32 into vector<2x1xf32>
        %800 = nvgpu.mma.sync(%559, %799, %672) {mmaShape = [16, 8, 8], tf32Enabled} : (vector<4x1xf32>, vector<2x1xf32>, vector<2x2xf32>) -> vector<2x2xf32>
        %801 = memref.load %alloc[%372, %393] : memref<16x256xf32, 3>
        %802 = vector.insert %801, %cst_2 [0, 0] : f32 into vector<2x1xf32>
        %803 = memref.load %alloc[%373, %393] : memref<16x256xf32, 3>
        %804 = vector.insert %803, %802 [1, 0] : f32 into vector<2x1xf32>
        %805 = nvgpu.mma.sync(%559, %804, %677) {mmaShape = [16, 8, 8], tf32Enabled} : (vector<4x1xf32>, vector<2x1xf32>, vector<2x2xf32>) -> vector<2x2xf32>
        %806 = memref.load %alloc[%372, %394] : memref<16x256xf32, 3>
        %807 = vector.insert %806, %cst_2 [0, 0] : f32 into vector<2x1xf32>
        %808 = memref.load %alloc[%373, %394] : memref<16x256xf32, 3>
        %809 = vector.insert %808, %807 [1, 0] : f32 into vector<2x1xf32>
        %810 = nvgpu.mma.sync(%559, %809, %682) {mmaShape = [16, 8, 8], tf32Enabled} : (vector<4x1xf32>, vector<2x1xf32>, vector<2x2xf32>) -> vector<2x2xf32>
        %811 = memref.load %alloc[%372, %395] : memref<16x256xf32, 3>
        %812 = vector.insert %811, %cst_2 [0, 0] : f32 into vector<2x1xf32>
        %813 = memref.load %alloc[%373, %395] : memref<16x256xf32, 3>
        %814 = vector.insert %813, %812 [1, 0] : f32 into vector<2x1xf32>
        %815 = nvgpu.mma.sync(%559, %814, %687) {mmaShape = [16, 8, 8], tf32Enabled} : (vector<4x1xf32>, vector<2x1xf32>, vector<2x2xf32>) -> vector<2x2xf32>
        %816 = nvgpu.mma.sync(%575, %739, %688) {mmaShape = [16, 8, 8], tf32Enabled} : (vector<4x1xf32>, vector<2x1xf32>, vector<2x2xf32>) -> vector<2x2xf32>
        %817 = nvgpu.mma.sync(%575, %744, %689) {mmaShape = [16, 8, 8], tf32Enabled} : (vector<4x1xf32>, vector<2x1xf32>, vector<2x2xf32>) -> vector<2x2xf32>
        %818 = nvgpu.mma.sync(%575, %749, %690) {mmaShape = [16, 8, 8], tf32Enabled} : (vector<4x1xf32>, vector<2x1xf32>, vector<2x2xf32>) -> vector<2x2xf32>
        %819 = nvgpu.mma.sync(%575, %754, %691) {mmaShape = [16, 8, 8], tf32Enabled} : (vector<4x1xf32>, vector<2x1xf32>, vector<2x2xf32>) -> vector<2x2xf32>
        %820 = nvgpu.mma.sync(%575, %759, %692) {mmaShape = [16, 8, 8], tf32Enabled} : (vector<4x1xf32>, vector<2x1xf32>, vector<2x2xf32>) -> vector<2x2xf32>
        %821 = nvgpu.mma.sync(%575, %764, %693) {mmaShape = [16, 8, 8], tf32Enabled} : (vector<4x1xf32>, vector<2x1xf32>, vector<2x2xf32>) -> vector<2x2xf32>
        %822 = nvgpu.mma.sync(%575, %769, %694) {mmaShape = [16, 8, 8], tf32Enabled} : (vector<4x1xf32>, vector<2x1xf32>, vector<2x2xf32>) -> vector<2x2xf32>
        %823 = nvgpu.mma.sync(%575, %774, %695) {mmaShape = [16, 8, 8], tf32Enabled} : (vector<4x1xf32>, vector<2x1xf32>, vector<2x2xf32>) -> vector<2x2xf32>
        %824 = nvgpu.mma.sync(%575, %779, %696) {mmaShape = [16, 8, 8], tf32Enabled} : (vector<4x1xf32>, vector<2x1xf32>, vector<2x2xf32>) -> vector<2x2xf32>
        %825 = nvgpu.mma.sync(%575, %784, %697) {mmaShape = [16, 8, 8], tf32Enabled} : (vector<4x1xf32>, vector<2x1xf32>, vector<2x2xf32>) -> vector<2x2xf32>
        %826 = nvgpu.mma.sync(%575, %789, %698) {mmaShape = [16, 8, 8], tf32Enabled} : (vector<4x1xf32>, vector<2x1xf32>, vector<2x2xf32>) -> vector<2x2xf32>
        %827 = nvgpu.mma.sync(%575, %794, %699) {mmaShape = [16, 8, 8], tf32Enabled} : (vector<4x1xf32>, vector<2x1xf32>, vector<2x2xf32>) -> vector<2x2xf32>
        %828 = nvgpu.mma.sync(%575, %799, %700) {mmaShape = [16, 8, 8], tf32Enabled} : (vector<4x1xf32>, vector<2x1xf32>, vector<2x2xf32>) -> vector<2x2xf32>
        %829 = nvgpu.mma.sync(%575, %804, %701) {mmaShape = [16, 8, 8], tf32Enabled} : (vector<4x1xf32>, vector<2x1xf32>, vector<2x2xf32>) -> vector<2x2xf32>
        %830 = nvgpu.mma.sync(%575, %809, %702) {mmaShape = [16, 8, 8], tf32Enabled} : (vector<4x1xf32>, vector<2x1xf32>, vector<2x2xf32>) -> vector<2x2xf32>
        %831 = nvgpu.mma.sync(%575, %814, %703) {mmaShape = [16, 8, 8], tf32Enabled} : (vector<4x1xf32>, vector<2x1xf32>, vector<2x2xf32>) -> vector<2x2xf32>
        %832 = nvgpu.mma.sync(%591, %739, %704) {mmaShape = [16, 8, 8], tf32Enabled} : (vector<4x1xf32>, vector<2x1xf32>, vector<2x2xf32>) -> vector<2x2xf32>
        %833 = nvgpu.mma.sync(%591, %744, %705) {mmaShape = [16, 8, 8], tf32Enabled} : (vector<4x1xf32>, vector<2x1xf32>, vector<2x2xf32>) -> vector<2x2xf32>
        %834 = nvgpu.mma.sync(%591, %749, %706) {mmaShape = [16, 8, 8], tf32Enabled} : (vector<4x1xf32>, vector<2x1xf32>, vector<2x2xf32>) -> vector<2x2xf32>
        %835 = nvgpu.mma.sync(%591, %754, %707) {mmaShape = [16, 8, 8], tf32Enabled} : (vector<4x1xf32>, vector<2x1xf32>, vector<2x2xf32>) -> vector<2x2xf32>
        %836 = nvgpu.mma.sync(%591, %759, %708) {mmaShape = [16, 8, 8], tf32Enabled} : (vector<4x1xf32>, vector<2x1xf32>, vector<2x2xf32>) -> vector<2x2xf32>
        %837 = nvgpu.mma.sync(%591, %764, %709) {mmaShape = [16, 8, 8], tf32Enabled} : (vector<4x1xf32>, vector<2x1xf32>, vector<2x2xf32>) -> vector<2x2xf32>
        %838 = nvgpu.mma.sync(%591, %769, %710) {mmaShape = [16, 8, 8], tf32Enabled} : (vector<4x1xf32>, vector<2x1xf32>, vector<2x2xf32>) -> vector<2x2xf32>
        %839 = nvgpu.mma.sync(%591, %774, %711) {mmaShape = [16, 8, 8], tf32Enabled} : (vector<4x1xf32>, vector<2x1xf32>, vector<2x2xf32>) -> vector<2x2xf32>
        %840 = nvgpu.mma.sync(%591, %779, %712) {mmaShape = [16, 8, 8], tf32Enabled} : (vector<4x1xf32>, vector<2x1xf32>, vector<2x2xf32>) -> vector<2x2xf32>
        %841 = nvgpu.mma.sync(%591, %784, %713) {mmaShape = [16, 8, 8], tf32Enabled} : (vector<4x1xf32>, vector<2x1xf32>, vector<2x2xf32>) -> vector<2x2xf32>
        %842 = nvgpu.mma.sync(%591, %789, %714) {mmaShape = [16, 8, 8], tf32Enabled} : (vector<4x1xf32>, vector<2x1xf32>, vector<2x2xf32>) -> vector<2x2xf32>
        %843 = nvgpu.mma.sync(%591, %794, %715) {mmaShape = [16, 8, 8], tf32Enabled} : (vector<4x1xf32>, vector<2x1xf32>, vector<2x2xf32>) -> vector<2x2xf32>
        %844 = nvgpu.mma.sync(%591, %799, %716) {mmaShape = [16, 8, 8], tf32Enabled} : (vector<4x1xf32>, vector<2x1xf32>, vector<2x2xf32>) -> vector<2x2xf32>
        %845 = nvgpu.mma.sync(%591, %804, %717) {mmaShape = [16, 8, 8], tf32Enabled} : (vector<4x1xf32>, vector<2x1xf32>, vector<2x2xf32>) -> vector<2x2xf32>
        %846 = nvgpu.mma.sync(%591, %809, %718) {mmaShape = [16, 8, 8], tf32Enabled} : (vector<4x1xf32>, vector<2x1xf32>, vector<2x2xf32>) -> vector<2x2xf32>
        %847 = nvgpu.mma.sync(%591, %814, %719) {mmaShape = [16, 8, 8], tf32Enabled} : (vector<4x1xf32>, vector<2x1xf32>, vector<2x2xf32>) -> vector<2x2xf32>
        %848 = nvgpu.mma.sync(%607, %739, %720) {mmaShape = [16, 8, 8], tf32Enabled} : (vector<4x1xf32>, vector<2x1xf32>, vector<2x2xf32>) -> vector<2x2xf32>
        %849 = nvgpu.mma.sync(%607, %744, %721) {mmaShape = [16, 8, 8], tf32Enabled} : (vector<4x1xf32>, vector<2x1xf32>, vector<2x2xf32>) -> vector<2x2xf32>
        %850 = nvgpu.mma.sync(%607, %749, %722) {mmaShape = [16, 8, 8], tf32Enabled} : (vector<4x1xf32>, vector<2x1xf32>, vector<2x2xf32>) -> vector<2x2xf32>
        %851 = nvgpu.mma.sync(%607, %754, %723) {mmaShape = [16, 8, 8], tf32Enabled} : (vector<4x1xf32>, vector<2x1xf32>, vector<2x2xf32>) -> vector<2x2xf32>
        %852 = nvgpu.mma.sync(%607, %759, %724) {mmaShape = [16, 8, 8], tf32Enabled} : (vector<4x1xf32>, vector<2x1xf32>, vector<2x2xf32>) -> vector<2x2xf32>
        %853 = nvgpu.mma.sync(%607, %764, %725) {mmaShape = [16, 8, 8], tf32Enabled} : (vector<4x1xf32>, vector<2x1xf32>, vector<2x2xf32>) -> vector<2x2xf32>
        %854 = nvgpu.mma.sync(%607, %769, %726) {mmaShape = [16, 8, 8], tf32Enabled} : (vector<4x1xf32>, vector<2x1xf32>, vector<2x2xf32>) -> vector<2x2xf32>
        %855 = nvgpu.mma.sync(%607, %774, %727) {mmaShape = [16, 8, 8], tf32Enabled} : (vector<4x1xf32>, vector<2x1xf32>, vector<2x2xf32>) -> vector<2x2xf32>
        %856 = nvgpu.mma.sync(%607, %779, %728) {mmaShape = [16, 8, 8], tf32Enabled} : (vector<4x1xf32>, vector<2x1xf32>, vector<2x2xf32>) -> vector<2x2xf32>
        %857 = nvgpu.mma.sync(%607, %784, %729) {mmaShape = [16, 8, 8], tf32Enabled} : (vector<4x1xf32>, vector<2x1xf32>, vector<2x2xf32>) -> vector<2x2xf32>
        %858 = nvgpu.mma.sync(%607, %789, %730) {mmaShape = [16, 8, 8], tf32Enabled} : (vector<4x1xf32>, vector<2x1xf32>, vector<2x2xf32>) -> vector<2x2xf32>
        %859 = nvgpu.mma.sync(%607, %794, %731) {mmaShape = [16, 8, 8], tf32Enabled} : (vector<4x1xf32>, vector<2x1xf32>, vector<2x2xf32>) -> vector<2x2xf32>
        %860 = nvgpu.mma.sync(%607, %799, %732) {mmaShape = [16, 8, 8], tf32Enabled} : (vector<4x1xf32>, vector<2x1xf32>, vector<2x2xf32>) -> vector<2x2xf32>
        %861 = nvgpu.mma.sync(%607, %804, %733) {mmaShape = [16, 8, 8], tf32Enabled} : (vector<4x1xf32>, vector<2x1xf32>, vector<2x2xf32>) -> vector<2x2xf32>
        %862 = nvgpu.mma.sync(%607, %809, %734) {mmaShape = [16, 8, 8], tf32Enabled} : (vector<4x1xf32>, vector<2x1xf32>, vector<2x2xf32>) -> vector<2x2xf32>
        %863 = nvgpu.mma.sync(%607, %814, %735) {mmaShape = [16, 8, 8], tf32Enabled} : (vector<4x1xf32>, vector<2x1xf32>, vector<2x2xf32>) -> vector<2x2xf32>
        gpu.barrier
        scf.yield %740, %745, %750, %755, %760, %765, %770, %775, %780, %785, %790, %795, %800, %805, %810, %815, %816, %817, %818, %819, %820, %821, %822, %823, %824, %825, %826, %827, %828, %829, %830, %831, %832, %833, %834, %835, %836, %837, %838, %839, %840, %841, %842, %843, %844, %845, %846, %847, %848, %849, %850, %851, %852, %853, %854, %855, %856, %857, %858, %859, %860, %861, %862, %863 : vector<2x2xf32>, vector<2x2xf32>, vector<2x2xf32>, vector<2x2xf32>, vector<2x2xf32>, vector<2x2xf32>, vector<2x2xf32>, vector<2x2xf32>, vector<2x2xf32>, vector<2x2xf32>, vector<2x2xf32>, vector<2x2xf32>, vector<2x2xf32>, vector<2x2xf32>, vector<2x2xf32>, vector<2x2xf32>, vector<2x2xf32>, vector<2x2xf32>, vector<2x2xf32>, vector<2x2xf32>, vector<2x2xf32>, vector<2x2xf32>, vector<2x2xf32>, vector<2x2xf32>, vector<2x2xf32>, vector<2x2xf32>, vector<2x2xf32>, vector<2x2xf32>, vector<2x2xf32>, vector<2x2xf32>, vector<2x2xf32>, vector<2x2xf32>, vector<2x2xf32>, vector<2x2xf32>, vector<2x2xf32>, vector<2x2xf32>, vector<2x2xf32>, vector<2x2xf32>, vector<2x2xf32>, vector<2x2xf32>, vector<2x2xf32>, vector<2x2xf32>, vector<2x2xf32>, vector<2x2xf32>, vector<2x2xf32>, vector<2x2xf32>, vector<2x2xf32>, vector<2x2xf32>, vector<2x2xf32>, vector<2x2xf32>, vector<2x2xf32>, vector<2x2xf32>, vector<2x2xf32>, vector<2x2xf32>, vector<2x2xf32>, vector<2x2xf32>, vector<2x2xf32>, vector<2x2xf32>, vector<2x2xf32>, vector<2x2xf32>, vector<2x2xf32>, vector<2x2xf32>, vector<2x2xf32>, vector<2x2xf32>
      }
      %407 = vector.extract %406#63[0] : vector<2xf32> from vector<2x2xf32>
      vector.store %407, %alloc_5[%302, %165] : memref<5376x5376xf32>, vector<2xf32>
      %408 = vector.extract %406#63[1] : vector<2xf32> from vector<2x2xf32>
      vector.store %408, %alloc_5[%305, %165] : memref<5376x5376xf32>, vector<2xf32>
      %409 = vector.extract %406#62[0] : vector<2xf32> from vector<2x2xf32>
      vector.store %409, %alloc_5[%302, %160] : memref<5376x5376xf32>, vector<2xf32>
      %410 = vector.extract %406#62[1] : vector<2xf32> from vector<2x2xf32>
      vector.store %410, %alloc_5[%305, %160] : memref<5376x5376xf32>, vector<2xf32>
      %411 = vector.extract %406#61[0] : vector<2xf32> from vector<2x2xf32>
      vector.store %411, %alloc_5[%302, %155] : memref<5376x5376xf32>, vector<2xf32>
      %412 = vector.extract %406#61[1] : vector<2xf32> from vector<2x2xf32>
      vector.store %412, %alloc_5[%305, %155] : memref<5376x5376xf32>, vector<2xf32>
      %413 = vector.extract %406#60[0] : vector<2xf32> from vector<2x2xf32>
      vector.store %413, %alloc_5[%302, %150] : memref<5376x5376xf32>, vector<2xf32>
      %414 = vector.extract %406#60[1] : vector<2xf32> from vector<2x2xf32>
      vector.store %414, %alloc_5[%305, %150] : memref<5376x5376xf32>, vector<2xf32>
      %415 = vector.extract %406#59[0] : vector<2xf32> from vector<2x2xf32>
      vector.store %415, %alloc_5[%302, %145] : memref<5376x5376xf32>, vector<2xf32>
      %416 = vector.extract %406#59[1] : vector<2xf32> from vector<2x2xf32>
      vector.store %416, %alloc_5[%305, %145] : memref<5376x5376xf32>, vector<2xf32>
      %417 = vector.extract %406#58[0] : vector<2xf32> from vector<2x2xf32>
      vector.store %417, %alloc_5[%302, %140] : memref<5376x5376xf32>, vector<2xf32>
      %418 = vector.extract %406#58[1] : vector<2xf32> from vector<2x2xf32>
      vector.store %418, %alloc_5[%305, %140] : memref<5376x5376xf32>, vector<2xf32>
      %419 = vector.extract %406#57[0] : vector<2xf32> from vector<2x2xf32>
      vector.store %419, %alloc_5[%302, %135] : memref<5376x5376xf32>, vector<2xf32>
      %420 = vector.extract %406#57[1] : vector<2xf32> from vector<2x2xf32>
      vector.store %420, %alloc_5[%305, %135] : memref<5376x5376xf32>, vector<2xf32>
      %421 = vector.extract %406#56[0] : vector<2xf32> from vector<2x2xf32>
      vector.store %421, %alloc_5[%302, %130] : memref<5376x5376xf32>, vector<2xf32>
      %422 = vector.extract %406#56[1] : vector<2xf32> from vector<2x2xf32>
      vector.store %422, %alloc_5[%305, %130] : memref<5376x5376xf32>, vector<2xf32>
      %423 = vector.extract %406#55[0] : vector<2xf32> from vector<2x2xf32>
      vector.store %423, %alloc_5[%302, %125] : memref<5376x5376xf32>, vector<2xf32>
      %424 = vector.extract %406#55[1] : vector<2xf32> from vector<2x2xf32>
      vector.store %424, %alloc_5[%305, %125] : memref<5376x5376xf32>, vector<2xf32>
      %425 = vector.extract %406#54[0] : vector<2xf32> from vector<2x2xf32>
      vector.store %425, %alloc_5[%302, %120] : memref<5376x5376xf32>, vector<2xf32>
      %426 = vector.extract %406#54[1] : vector<2xf32> from vector<2x2xf32>
      vector.store %426, %alloc_5[%305, %120] : memref<5376x5376xf32>, vector<2xf32>
      %427 = vector.extract %406#53[0] : vector<2xf32> from vector<2x2xf32>
      vector.store %427, %alloc_5[%302, %115] : memref<5376x5376xf32>, vector<2xf32>
      %428 = vector.extract %406#53[1] : vector<2xf32> from vector<2x2xf32>
      vector.store %428, %alloc_5[%305, %115] : memref<5376x5376xf32>, vector<2xf32>
      %429 = vector.extract %406#52[0] : vector<2xf32> from vector<2x2xf32>
      vector.store %429, %alloc_5[%302, %110] : memref<5376x5376xf32>, vector<2xf32>
      %430 = vector.extract %406#52[1] : vector<2xf32> from vector<2x2xf32>
      vector.store %430, %alloc_5[%305, %110] : memref<5376x5376xf32>, vector<2xf32>
      %431 = vector.extract %406#51[0] : vector<2xf32> from vector<2x2xf32>
      vector.store %431, %alloc_5[%302, %105] : memref<5376x5376xf32>, vector<2xf32>
      %432 = vector.extract %406#51[1] : vector<2xf32> from vector<2x2xf32>
      vector.store %432, %alloc_5[%305, %105] : memref<5376x5376xf32>, vector<2xf32>
      %433 = vector.extract %406#50[0] : vector<2xf32> from vector<2x2xf32>
      vector.store %433, %alloc_5[%302, %100] : memref<5376x5376xf32>, vector<2xf32>
      %434 = vector.extract %406#50[1] : vector<2xf32> from vector<2x2xf32>
      vector.store %434, %alloc_5[%305, %100] : memref<5376x5376xf32>, vector<2xf32>
      %435 = vector.extract %406#49[0] : vector<2xf32> from vector<2x2xf32>
      vector.store %435, %alloc_5[%302, %95] : memref<5376x5376xf32>, vector<2xf32>
      %436 = vector.extract %406#49[1] : vector<2xf32> from vector<2x2xf32>
      vector.store %436, %alloc_5[%305, %95] : memref<5376x5376xf32>, vector<2xf32>
      %437 = vector.extract %406#48[0] : vector<2xf32> from vector<2x2xf32>
      vector.store %437, %alloc_5[%302, %89] : memref<5376x5376xf32>, vector<2xf32>
      %438 = vector.extract %406#48[1] : vector<2xf32> from vector<2x2xf32>
      vector.store %438, %alloc_5[%305, %89] : memref<5376x5376xf32>, vector<2xf32>
      %439 = vector.extract %406#47[0] : vector<2xf32> from vector<2x2xf32>
      vector.store %439, %alloc_5[%236, %165] : memref<5376x5376xf32>, vector<2xf32>
      %440 = vector.extract %406#47[1] : vector<2xf32> from vector<2x2xf32>
      vector.store %440, %alloc_5[%239, %165] : memref<5376x5376xf32>, vector<2xf32>
      %441 = vector.extract %406#46[0] : vector<2xf32> from vector<2x2xf32>
      vector.store %441, %alloc_5[%236, %160] : memref<5376x5376xf32>, vector<2xf32>
      %442 = vector.extract %406#46[1] : vector<2xf32> from vector<2x2xf32>
      vector.store %442, %alloc_5[%239, %160] : memref<5376x5376xf32>, vector<2xf32>
      %443 = vector.extract %406#45[0] : vector<2xf32> from vector<2x2xf32>
      vector.store %443, %alloc_5[%236, %155] : memref<5376x5376xf32>, vector<2xf32>
      %444 = vector.extract %406#45[1] : vector<2xf32> from vector<2x2xf32>
      vector.store %444, %alloc_5[%239, %155] : memref<5376x5376xf32>, vector<2xf32>
      %445 = vector.extract %406#44[0] : vector<2xf32> from vector<2x2xf32>
      vector.store %445, %alloc_5[%236, %150] : memref<5376x5376xf32>, vector<2xf32>
      %446 = vector.extract %406#44[1] : vector<2xf32> from vector<2x2xf32>
      vector.store %446, %alloc_5[%239, %150] : memref<5376x5376xf32>, vector<2xf32>
      %447 = vector.extract %406#43[0] : vector<2xf32> from vector<2x2xf32>
      vector.store %447, %alloc_5[%236, %145] : memref<5376x5376xf32>, vector<2xf32>
      %448 = vector.extract %406#43[1] : vector<2xf32> from vector<2x2xf32>
      vector.store %448, %alloc_5[%239, %145] : memref<5376x5376xf32>, vector<2xf32>
      %449 = vector.extract %406#42[0] : vector<2xf32> from vector<2x2xf32>
      vector.store %449, %alloc_5[%236, %140] : memref<5376x5376xf32>, vector<2xf32>
      %450 = vector.extract %406#42[1] : vector<2xf32> from vector<2x2xf32>
      vector.store %450, %alloc_5[%239, %140] : memref<5376x5376xf32>, vector<2xf32>
      %451 = vector.extract %406#41[0] : vector<2xf32> from vector<2x2xf32>
      vector.store %451, %alloc_5[%236, %135] : memref<5376x5376xf32>, vector<2xf32>
      %452 = vector.extract %406#41[1] : vector<2xf32> from vector<2x2xf32>
      vector.store %452, %alloc_5[%239, %135] : memref<5376x5376xf32>, vector<2xf32>
      %453 = vector.extract %406#40[0] : vector<2xf32> from vector<2x2xf32>
      vector.store %453, %alloc_5[%236, %130] : memref<5376x5376xf32>, vector<2xf32>
      %454 = vector.extract %406#40[1] : vector<2xf32> from vector<2x2xf32>
      vector.store %454, %alloc_5[%239, %130] : memref<5376x5376xf32>, vector<2xf32>
      %455 = vector.extract %406#39[0] : vector<2xf32> from vector<2x2xf32>
      vector.store %455, %alloc_5[%236, %125] : memref<5376x5376xf32>, vector<2xf32>
      %456 = vector.extract %406#39[1] : vector<2xf32> from vector<2x2xf32>
      vector.store %456, %alloc_5[%239, %125] : memref<5376x5376xf32>, vector<2xf32>
      %457 = vector.extract %406#38[0] : vector<2xf32> from vector<2x2xf32>
      vector.store %457, %alloc_5[%236, %120] : memref<5376x5376xf32>, vector<2xf32>
      %458 = vector.extract %406#38[1] : vector<2xf32> from vector<2x2xf32>
      vector.store %458, %alloc_5[%239, %120] : memref<5376x5376xf32>, vector<2xf32>
      %459 = vector.extract %406#37[0] : vector<2xf32> from vector<2x2xf32>
      vector.store %459, %alloc_5[%236, %115] : memref<5376x5376xf32>, vector<2xf32>
      %460 = vector.extract %406#37[1] : vector<2xf32> from vector<2x2xf32>
      vector.store %460, %alloc_5[%239, %115] : memref<5376x5376xf32>, vector<2xf32>
      %461 = vector.extract %406#36[0] : vector<2xf32> from vector<2x2xf32>
      vector.store %461, %alloc_5[%236, %110] : memref<5376x5376xf32>, vector<2xf32>
      %462 = vector.extract %406#36[1] : vector<2xf32> from vector<2x2xf32>
      vector.store %462, %alloc_5[%239, %110] : memref<5376x5376xf32>, vector<2xf32>
      %463 = vector.extract %406#35[0] : vector<2xf32> from vector<2x2xf32>
      vector.store %463, %alloc_5[%236, %105] : memref<5376x5376xf32>, vector<2xf32>
      %464 = vector.extract %406#35[1] : vector<2xf32> from vector<2x2xf32>
      vector.store %464, %alloc_5[%239, %105] : memref<5376x5376xf32>, vector<2xf32>
      %465 = vector.extract %406#34[0] : vector<2xf32> from vector<2x2xf32>
      vector.store %465, %alloc_5[%236, %100] : memref<5376x5376xf32>, vector<2xf32>
      %466 = vector.extract %406#34[1] : vector<2xf32> from vector<2x2xf32>
      vector.store %466, %alloc_5[%239, %100] : memref<5376x5376xf32>, vector<2xf32>
      %467 = vector.extract %406#33[0] : vector<2xf32> from vector<2x2xf32>
      vector.store %467, %alloc_5[%236, %95] : memref<5376x5376xf32>, vector<2xf32>
      %468 = vector.extract %406#33[1] : vector<2xf32> from vector<2x2xf32>
      vector.store %468, %alloc_5[%239, %95] : memref<5376x5376xf32>, vector<2xf32>
      %469 = vector.extract %406#32[0] : vector<2xf32> from vector<2x2xf32>
      vector.store %469, %alloc_5[%236, %89] : memref<5376x5376xf32>, vector<2xf32>
      %470 = vector.extract %406#32[1] : vector<2xf32> from vector<2x2xf32>
      vector.store %470, %alloc_5[%239, %89] : memref<5376x5376xf32>, vector<2xf32>
      %471 = vector.extract %406#31[0] : vector<2xf32> from vector<2x2xf32>
      vector.store %471, %alloc_5[%170, %165] : memref<5376x5376xf32>, vector<2xf32>
      %472 = vector.extract %406#31[1] : vector<2xf32> from vector<2x2xf32>
      vector.store %472, %alloc_5[%173, %165] : memref<5376x5376xf32>, vector<2xf32>
      %473 = vector.extract %406#30[0] : vector<2xf32> from vector<2x2xf32>
      vector.store %473, %alloc_5[%170, %160] : memref<5376x5376xf32>, vector<2xf32>
      %474 = vector.extract %406#30[1] : vector<2xf32> from vector<2x2xf32>
      vector.store %474, %alloc_5[%173, %160] : memref<5376x5376xf32>, vector<2xf32>
      %475 = vector.extract %406#29[0] : vector<2xf32> from vector<2x2xf32>
      vector.store %475, %alloc_5[%170, %155] : memref<5376x5376xf32>, vector<2xf32>
      %476 = vector.extract %406#29[1] : vector<2xf32> from vector<2x2xf32>
      vector.store %476, %alloc_5[%173, %155] : memref<5376x5376xf32>, vector<2xf32>
      %477 = vector.extract %406#28[0] : vector<2xf32> from vector<2x2xf32>
      vector.store %477, %alloc_5[%170, %150] : memref<5376x5376xf32>, vector<2xf32>
      %478 = vector.extract %406#28[1] : vector<2xf32> from vector<2x2xf32>
      vector.store %478, %alloc_5[%173, %150] : memref<5376x5376xf32>, vector<2xf32>
      %479 = vector.extract %406#27[0] : vector<2xf32> from vector<2x2xf32>
      vector.store %479, %alloc_5[%170, %145] : memref<5376x5376xf32>, vector<2xf32>
      %480 = vector.extract %406#27[1] : vector<2xf32> from vector<2x2xf32>
      vector.store %480, %alloc_5[%173, %145] : memref<5376x5376xf32>, vector<2xf32>
      %481 = vector.extract %406#26[0] : vector<2xf32> from vector<2x2xf32>
      vector.store %481, %alloc_5[%170, %140] : memref<5376x5376xf32>, vector<2xf32>
      %482 = vector.extract %406#26[1] : vector<2xf32> from vector<2x2xf32>
      vector.store %482, %alloc_5[%173, %140] : memref<5376x5376xf32>, vector<2xf32>
      %483 = vector.extract %406#25[0] : vector<2xf32> from vector<2x2xf32>
      vector.store %483, %alloc_5[%170, %135] : memref<5376x5376xf32>, vector<2xf32>
      %484 = vector.extract %406#25[1] : vector<2xf32> from vector<2x2xf32>
      vector.store %484, %alloc_5[%173, %135] : memref<5376x5376xf32>, vector<2xf32>
      %485 = vector.extract %406#24[0] : vector<2xf32> from vector<2x2xf32>
      vector.store %485, %alloc_5[%170, %130] : memref<5376x5376xf32>, vector<2xf32>
      %486 = vector.extract %406#24[1] : vector<2xf32> from vector<2x2xf32>
      vector.store %486, %alloc_5[%173, %130] : memref<5376x5376xf32>, vector<2xf32>
      %487 = vector.extract %406#23[0] : vector<2xf32> from vector<2x2xf32>
      vector.store %487, %alloc_5[%170, %125] : memref<5376x5376xf32>, vector<2xf32>
      %488 = vector.extract %406#23[1] : vector<2xf32> from vector<2x2xf32>
      vector.store %488, %alloc_5[%173, %125] : memref<5376x5376xf32>, vector<2xf32>
      %489 = vector.extract %406#22[0] : vector<2xf32> from vector<2x2xf32>
      vector.store %489, %alloc_5[%170, %120] : memref<5376x5376xf32>, vector<2xf32>
      %490 = vector.extract %406#22[1] : vector<2xf32> from vector<2x2xf32>
      vector.store %490, %alloc_5[%173, %120] : memref<5376x5376xf32>, vector<2xf32>
      %491 = vector.extract %406#21[0] : vector<2xf32> from vector<2x2xf32>
      vector.store %491, %alloc_5[%170, %115] : memref<5376x5376xf32>, vector<2xf32>
      %492 = vector.extract %406#21[1] : vector<2xf32> from vector<2x2xf32>
      vector.store %492, %alloc_5[%173, %115] : memref<5376x5376xf32>, vector<2xf32>
      %493 = vector.extract %406#20[0] : vector<2xf32> from vector<2x2xf32>
      vector.store %493, %alloc_5[%170, %110] : memref<5376x5376xf32>, vector<2xf32>
      %494 = vector.extract %406#20[1] : vector<2xf32> from vector<2x2xf32>
      vector.store %494, %alloc_5[%173, %110] : memref<5376x5376xf32>, vector<2xf32>
      %495 = vector.extract %406#19[0] : vector<2xf32> from vector<2x2xf32>
      vector.store %495, %alloc_5[%170, %105] : memref<5376x5376xf32>, vector<2xf32>
      %496 = vector.extract %406#19[1] : vector<2xf32> from vector<2x2xf32>
      vector.store %496, %alloc_5[%173, %105] : memref<5376x5376xf32>, vector<2xf32>
      %497 = vector.extract %406#18[0] : vector<2xf32> from vector<2x2xf32>
      vector.store %497, %alloc_5[%170, %100] : memref<5376x5376xf32>, vector<2xf32>
      %498 = vector.extract %406#18[1] : vector<2xf32> from vector<2x2xf32>
      vector.store %498, %alloc_5[%173, %100] : memref<5376x5376xf32>, vector<2xf32>
      %499 = vector.extract %406#17[0] : vector<2xf32> from vector<2x2xf32>
      vector.store %499, %alloc_5[%170, %95] : memref<5376x5376xf32>, vector<2xf32>
      %500 = vector.extract %406#17[1] : vector<2xf32> from vector<2x2xf32>
      vector.store %500, %alloc_5[%173, %95] : memref<5376x5376xf32>, vector<2xf32>
      %501 = vector.extract %406#16[0] : vector<2xf32> from vector<2x2xf32>
      vector.store %501, %alloc_5[%170, %89] : memref<5376x5376xf32>, vector<2xf32>
      %502 = vector.extract %406#16[1] : vector<2xf32> from vector<2x2xf32>
      vector.store %502, %alloc_5[%173, %89] : memref<5376x5376xf32>, vector<2xf32>
      %503 = vector.extract %406#15[0] : vector<2xf32> from vector<2x2xf32>
      vector.store %503, %alloc_5[%88, %165] : memref<5376x5376xf32>, vector<2xf32>
      %504 = vector.extract %406#15[1] : vector<2xf32> from vector<2x2xf32>
      vector.store %504, %alloc_5[%92, %165] : memref<5376x5376xf32>, vector<2xf32>
      %505 = vector.extract %406#14[0] : vector<2xf32> from vector<2x2xf32>
      vector.store %505, %alloc_5[%88, %160] : memref<5376x5376xf32>, vector<2xf32>
      %506 = vector.extract %406#14[1] : vector<2xf32> from vector<2x2xf32>
      vector.store %506, %alloc_5[%92, %160] : memref<5376x5376xf32>, vector<2xf32>
      %507 = vector.extract %406#13[0] : vector<2xf32> from vector<2x2xf32>
      vector.store %507, %alloc_5[%88, %155] : memref<5376x5376xf32>, vector<2xf32>
      %508 = vector.extract %406#13[1] : vector<2xf32> from vector<2x2xf32>
      vector.store %508, %alloc_5[%92, %155] : memref<5376x5376xf32>, vector<2xf32>
      %509 = vector.extract %406#12[0] : vector<2xf32> from vector<2x2xf32>
      vector.store %509, %alloc_5[%88, %150] : memref<5376x5376xf32>, vector<2xf32>
      %510 = vector.extract %406#12[1] : vector<2xf32> from vector<2x2xf32>
      vector.store %510, %alloc_5[%92, %150] : memref<5376x5376xf32>, vector<2xf32>
      %511 = vector.extract %406#11[0] : vector<2xf32> from vector<2x2xf32>
      vector.store %511, %alloc_5[%88, %145] : memref<5376x5376xf32>, vector<2xf32>
      %512 = vector.extract %406#11[1] : vector<2xf32> from vector<2x2xf32>
      vector.store %512, %alloc_5[%92, %145] : memref<5376x5376xf32>, vector<2xf32>
      %513 = vector.extract %406#10[0] : vector<2xf32> from vector<2x2xf32>
      vector.store %513, %alloc_5[%88, %140] : memref<5376x5376xf32>, vector<2xf32>
      %514 = vector.extract %406#10[1] : vector<2xf32> from vector<2x2xf32>
      vector.store %514, %alloc_5[%92, %140] : memref<5376x5376xf32>, vector<2xf32>
      %515 = vector.extract %406#9[0] : vector<2xf32> from vector<2x2xf32>
      vector.store %515, %alloc_5[%88, %135] : memref<5376x5376xf32>, vector<2xf32>
      %516 = vector.extract %406#9[1] : vector<2xf32> from vector<2x2xf32>
      vector.store %516, %alloc_5[%92, %135] : memref<5376x5376xf32>, vector<2xf32>
      %517 = vector.extract %406#8[0] : vector<2xf32> from vector<2x2xf32>
      vector.store %517, %alloc_5[%88, %130] : memref<5376x5376xf32>, vector<2xf32>
      %518 = vector.extract %406#8[1] : vector<2xf32> from vector<2x2xf32>
      vector.store %518, %alloc_5[%92, %130] : memref<5376x5376xf32>, vector<2xf32>
      %519 = vector.extract %406#7[0] : vector<2xf32> from vector<2x2xf32>
      vector.store %519, %alloc_5[%88, %125] : memref<5376x5376xf32>, vector<2xf32>
      %520 = vector.extract %406#7[1] : vector<2xf32> from vector<2x2xf32>
      vector.store %520, %alloc_5[%92, %125] : memref<5376x5376xf32>, vector<2xf32>
      %521 = vector.extract %406#6[0] : vector<2xf32> from vector<2x2xf32>
      vector.store %521, %alloc_5[%88, %120] : memref<5376x5376xf32>, vector<2xf32>
      %522 = vector.extract %406#6[1] : vector<2xf32> from vector<2x2xf32>
      vector.store %522, %alloc_5[%92, %120] : memref<5376x5376xf32>, vector<2xf32>
      %523 = vector.extract %406#5[0] : vector<2xf32> from vector<2x2xf32>
      vector.store %523, %alloc_5[%88, %115] : memref<5376x5376xf32>, vector<2xf32>
      %524 = vector.extract %406#5[1] : vector<2xf32> from vector<2x2xf32>
      vector.store %524, %alloc_5[%92, %115] : memref<5376x5376xf32>, vector<2xf32>
      %525 = vector.extract %406#4[0] : vector<2xf32> from vector<2x2xf32>
      vector.store %525, %alloc_5[%88, %110] : memref<5376x5376xf32>, vector<2xf32>
      %526 = vector.extract %406#4[1] : vector<2xf32> from vector<2x2xf32>
      vector.store %526, %alloc_5[%92, %110] : memref<5376x5376xf32>, vector<2xf32>
      %527 = vector.extract %406#3[0] : vector<2xf32> from vector<2x2xf32>
      vector.store %527, %alloc_5[%88, %105] : memref<5376x5376xf32>, vector<2xf32>
      %528 = vector.extract %406#3[1] : vector<2xf32> from vector<2x2xf32>
      vector.store %528, %alloc_5[%92, %105] : memref<5376x5376xf32>, vector<2xf32>
      %529 = vector.extract %406#2[0] : vector<2xf32> from vector<2x2xf32>
      vector.store %529, %alloc_5[%88, %100] : memref<5376x5376xf32>, vector<2xf32>
      %530 = vector.extract %406#2[1] : vector<2xf32> from vector<2x2xf32>
      vector.store %530, %alloc_5[%92, %100] : memref<5376x5376xf32>, vector<2xf32>
      %531 = vector.extract %406#1[0] : vector<2xf32> from vector<2x2xf32>
      vector.store %531, %alloc_5[%88, %95] : memref<5376x5376xf32>, vector<2xf32>
      %532 = vector.extract %406#1[1] : vector<2xf32> from vector<2x2xf32>
      vector.store %532, %alloc_5[%92, %95] : memref<5376x5376xf32>, vector<2xf32>
      %533 = vector.extract %406#0[0] : vector<2xf32> from vector<2x2xf32>
      vector.store %533, %alloc_5[%88, %89] : memref<5376x5376xf32>, vector<2xf32>
      %534 = vector.extract %406#0[1] : vector<2xf32> from vector<2x2xf32>
      vector.store %534, %alloc_5[%92, %89] : memref<5376x5376xf32>, vector<2xf32>
      gpu.terminator
    }
    memref.dealloc %alloc_4 : memref<128x16xf32, 3>
    memref.dealloc %alloc : memref<16x256xf32, 3>
    return %alloc_5 : memref<5376x5376xf32>
  }
}

